pytorch/model/model.pt (torch_old, 268778 bytes, 10 tensors)

weight f4 [6, 1, 5, 5]
0	0xbd06b994	-0.032891825
1	0xbe9e9990	-0.30976534
2	0x3ccaacc7	0.02474059
3	0x3e37278d	0.17886181
4	0x3d930d35	0.071802534
5	0x3e4dfcab	0.20115916
6	0x3e75e54c	0.24013251
7	0x3eae2fa8	0.34020734
8	0x3efc852b	0.4932035
9	0x3eca10fb	0.3946608
10	0x3ef56647	0.47929594
11	0x3f1ee71f	0.6207141
12	0x3f03754d	0.5135086
13	0x3f0b7cff	0.54487604
14	0x3e895baa	0.26827747
15	0x3dabdcc5	0.08391718
16	0x3dd6d5a6	0.10489969
17	0x3e466292	0.19373539
18	0x3e92dee4	0.28685677
19	0x3da198a4	0.07890442
20	0xbe22f097	-0.1591209
21	0xbecdf05f	-0.4022245
22	0xbe6c50f1	-0.23077752
23	0x3da0db61	0.07854343
24	0x3e18ba76	0.14914879
25	0xbd54f455	-0.051990826
26	0x3d45b171	0.048264924
27	0xbdb0e91b	-0.08638211
28	0xbdacae15	-0.08431641
29	0xbe9d3fca	-0.3071273
30	0x3e466a9c	0.19376606
31	0x3e3c7111	0.18402506
32	0xbe2bfd78	-0.1679591
33	0xbe2bc7b4	-0.167754
34	0xbd81049b	-0.062997065
35	0x3e901b59	0.28145865
36	0x3edc753e	0.430582
37	0x3dfc4864	0.12318495
38	0x3c24d29a	0.010059977
39	0xbe8adf18	-0.27123332
40	0xbba06d17	-0.004895817
41	0x3e450976	0.1924189
42	0x3e84fee2	0.2597571
43	0x3ec01078	0.37512565
44	0xbd5203bc	-0.051273093
45	0xbdc5a5c8	-0.09650761
46	0x3e4b1804	0.1983338
47	0x3ea38877	0.31940052
48	0x3dbf3280	0.09335804
49	0x3df13cd8	0.11779183
50	0xbe4e258e	-0.20131513
51	0xbd903f0b	-0.070432745
52	0x3e20c8c9	0.15701593
53	0xbdf707a5	-0.12062005
54	0xbdfaaaa8	-0.12239581
55	0x3da30e30	0.079616904
56	0xbd928c40	-0.07155657
57	0x3e48d84d	0.19613762
58	0xbd9f5046	-0.07778983
59	0xbe65fdf4	-0.22460157
60	0xbe37828e	-0.17920896
61	0x3cbc031d	0.022950703
62	0x3e6fdc63	0.23423915
63	0xbe179dd8	-0.14806306
64	0x3e02672f	0.12734674
65	0xbc1b86f9	-0.009492629
66	0xbe2aaf95	-0.16668542
67	0x3e8a79fc	0.27046192
68	0x3e3318ca	0.17489925
69	0x3e643e6e	0.2228944
70	0x3e0399ef	0.1285169
71	0xbe5150f0	-0.20441031
72	0x3cd9647c	0.026537172
73	0x3e15afa7	0.14617787
74	0xbc3e3c58	-0.011611067
75	0x3cfbcc67	0.030737115
76	0x3f04abcf	0.5182466
77	0x3eb506a6	0.35356635
78	0xbb8c937d	-0.004290043
79	0xbea8ef5b	-0.32995114
80	0x3ec0760d	0.37590066
81	0x3f1f9f42	0.62352383
82	0x3d2588a9	0.040413532
83	0xbdf00e2f	-0.11721455
84	0xbea8877d	-0.3291587
85	0x3f0ba859	0.54553753
86	0x3f038b1f	0.51384157
87	0xbdc5bae6	-0.09654789
88	0xbdc780be	-0.097413525
89	0xbeafb104	-0.3431474
90	0x3ef494cf	0.47769782
91	0x3edf4b96	0.43612355
92	0xbd97b18e	-0.07406913
93	0xbe28b7ba	-0.16476336
94	0xbe7e17dd	-0.2481379
95	0x3ed35d7f	0.4128227
96	0x3dfe3514	0.124124676
97	0x3e18f209	0.14936079
98	0xbd51a2b2	-0.05118055
99	0x3e3243c1	0.17408659
100	0xbe43bb7a	-0.19114485
101	0xbcf0fa11	-0.029416116
102	0xbcbdf8df	-0.02318996
103	0xbe3a192c	-0.18173665
104	0xbd5e62db	-0.054293495
105	0xbdc9ce2e	-0.09853779
106	0x3dd8a3ce	0.10578118
107	0xbe44f4a6	-0.19233951
108	0xbe1f676d	-0.15566798
109	0xbe6858d2	-0.22690132
110	0xbe75ca73	-0.2400301
111	0x3da7e867	0.08198624
112	0xbd2a5f9e	-0.041595094
113	0xbda1a2ff	-0.07892417
114	0xbd837920	-0.06419587
115	0xbd0c9364	-0.03432025
116	0xbd579bd7	-0.052638855
117	0xbe7b9672	-0.24569109
118	0x3e02644d	0.12733574
119	0xbd94d888	-0.072678626
120	0xbcdd2178	-0.026993498
121	0xbe15e018	-0.14636266
122	0xbdbc3427	-0.09189635
123	0xbe19c007	-0.15014659
124	0x3e1b28f3	0.1515234
125	0x3dfb1ba1	0.12261129
126	0x3e11d98e	0.14243147
127	0x3ee77feb	0.4521478
128	0x3e81efec	0.25378358
129	0xbc51f484	-0.012814645
130	0x3c367375	0.011135926
131	0x3ea218b8	0.31659484
132	0x3ec51ee4	0.3850013
133	0x3e60323a	0.2189416
134	0x3e255339	0.16145028
135	0x3c4083e2	0.011750193
136	0xbd9f1761	-0.07768131
137	0xbd74487c	-0.05963944
138	0xbc193394	-0.009350676
139	0x3d823182	0.06357099
140	0xbe48f721	-0.19625522
141	0xbecacda5	-0.3961002
142	0xbe985df2	-0.29759175
143	0x3d519dc5	0.05117585
144	0x3e90a60a	0.28251678
145	0x3b94ac89	0.0045371694
146	0xbe95ac47	-0.29233
147	0x3dae7f90	0.08520424
148	0xbd3e5e91	-0.046476904
149	0x3eb94908	0.3618853

bias f4 [6]
0	0x3ee8cd9c	0.45469368
1	0xbd2d54bd	-0.04231714
2	0xbde07231	-0.1095928
3	0x3e2c79d4	0.16843349
4	0xbbf3eea3	-0.007444219
5	0x3e2a5864	0.16635281

weight f4 [16, 6, 5, 5]
0	0xbd247be3	-0.04015721
1	0xbd2f1161	-0.042741183
2	0xbd34e225	-0.04416098
3	0x3d2cebaf	0.042216953
4	0x3d9bfef2	0.07616986
5	0x3cd1a4dd	0.025591308
6	0xbde132b6	-0.109960005
7	0x3d1844ee	0.03717511
8	0xbcf426ed	-0.029803718
9	0xbc72b5ba	-0.014813835
10	0xbd27def3	-0.040984105
11	0xbe0a8361	-0.1352668
12	0x3d05a2f4	0.032626107
13	0x3db3207f	0.087464325
14	0x3c6e8d15	0.014560004
15	0x3cf5de6b	0.030013284
16	0x3dcf1c54	0.10112825
17	0x3d8f7bf2	0.070060626
18	0x3d9fbe8c	0.07800016
19	0xbad01c41	-0.0015877561
20	0x3dc8de06	0.098079726
21	0x3cb48bc0	0.022039294
22	0x3d8f610a	0.070009306
23	0xbd723fd8	-0.059142917
24	0xbd4e83c3	-0.050418627
25	0x3d19a1d9	0.037507866
26	0xbc40848c	-0.011750352
27	0xbdc5c631	-0.09656943
28	0xbb45473f	-0.003010228
29	0x3d8a718a	0.06759937
30	0xbd66ffd3	-0.056396317
31	0x3b39f8d9	0.0028377085
32	0xbc39978d	-0.011327636
33	0xbdaeafaa	-0.08529599
34	0x3dc6ce3d	0.097073056
35	0xbdafeb92	-0.08589853
36	0xbd305d80	-0.04305792
37	0x3d0f732b	0.035021942
38	0xbccdd9d5	-0.025128284
39	0x3d567988	0.052361995
40	0xbc8c9cf5	-0.017164687
41	0x3babeca4	0.0052467156
42	0xbc80a6a4	-0.01570446
43	0x3d3193b9	0.04335377
44	0x3c914607	0.017733587
45	0x3cdde0a8	0.027084664
46	0x3da28cc0	0.07937002
47	0x3bcd7abf	0.006270736
48	0xbda14ae9	-0.07875616
49	0xbdb49ad9	-0.08818597
50	0xbd68d04e	-0.05683928
51	0x3d69afac	0.0570523
52	0xbce75ecb	-0.028243443
53	0x3db58f04	0.08865169
54	0x3c8722b9	0.01649605
55	0xbd97dba8	-0.07414943
56	0xbd0c0277	-0.03418204
57	0x3c68d1f0	0.014210209
58	0x3d6d9a25	0.05800833
59	0x3d96dbce	0.07366143
60	0xbdbf184b	-0.093308054
61	0x3d5c8ef7	0.05384728
62	0xbd74bd1a	-0.059750654
63	0xbd567632	-0.052358814
64	0xbce1563f	-0.027506946
65	0x3d8316c0	0.064008236
66	0xba0ae9d8	-0.00052991277
67	0x3c871ec0	0.016494155
68	0xbd17855a	-0.03699241
69	0x3c674bfa	0.014117235
70	0x3d4b3e82	0.04962016
71	0xbd81bb8f	-0.06334602
72	0x3c52a350	0.01285632
73	0xbcdce5a6	-0.026964974
74	0x3c9cc7ce	0.019138243
75	0x3c5e7637	0.013577989
76	0xbd080e32	-0.033216663
77	0xbcbf37bd	-0.023342008
78	0xbcb149c7	-0.021641625
79	0x3e49ca54	0.19706088
80	0xbd8a0faf	-0.06741273
81	0xbd220466	-0.039554976
82	0xbde40de6	-0.111354634
83	0xbda9aee0	-0.08285308
84	0x3e46de96	0.19420847
85	0xbe1c9e1f	-0.15294693
86	0xbde15797	-0.110030346
87	0xbdd9ed15	-0.10640923
88	0x3d4f9073	0.050674867
89	0x3cc5f579	0.024164902
90	0xbd5cc365	-0.05389728
91	0xbd56fd72	-0.052487798
92	0xbbc853ed	-0.0061135204
93	0x3dda2131	0.10650862
94	0xbd1c4471	-0.03815121
95	0x3b459bbc	0.003015264
96	0x3d9214af	0.07132851
97	0x3d7929f6	0.060831033
98	0xbdd93eed	-0.10607705
99	0x3d7351f5	0.059404332
100	0x3cc99cef	0.024610965
101	0xbc532539	-0.012887293
102	0x3d11d41b	0.03560267
103	0x3d720bda	0.059093334
104	0x3d5b0318	0.053469747
105	0xbda84f45	-0.082182445
106	0x3d9d45eb	0.076793514
107	0xbd8291a1	-0.06375433
108	0xbd0c3757	-0.034232464
109	0x3bc288de	0.005936726
110	0xbd05d64e	-0.03267508
111	0x3c9b4214	0.018952407
112	0xbd8232eb	-0.06357368
113	0x3d699175	0.057023484
114	0xbb0fe135	-0.0021954302
115	0x3d92c79c	0.07166979
116	0x3d70f77f	0.05882978
117	0x3c13c294	0.009018559
118	0x3c2bbddc	0.010482278
119	0xbd825fc7	-0.06365924
120	0x3c9e1e7e	0.01930165
121	0x3ceabdde	0.028654989
122	0xbc93b3e8	-0.018030122
123	0x3be499b0	0.006976329
124	0xbd90392a	-0.07042153
125	0xbd49195a	-0.049096443
126	0x3cc08709	0.02350189
127	0x3d9541ac	0.072879165
128	0x3d15528e	0.036455683
129	0x3c5a913b	0.01334029
130	0xbdc6ff01	-0.09716607
131	0xbb52e834	-0.003218186
132	0x3d278adf	0.040903922
133	0x3d2407dc	0.040046558
134	0x3d95c948	0.07313782
135	0x3d652707	0.055945423
136	0x3d1c4ea8	0.03816095
137	0xbbb40abc	-0.0054944437
138	0x3d5d83e9	0.054080877
139	0x3daf0605	0.0854607
140	0x3cedd46c	0.029031955
141	0xbd1d5772	-0.038413472
142	0x3be7edee	0.007077924
143	0xbd1d55e3	-0.038411986
144	0xbcb99613	-0.022654569
145	0xbd2447a2	-0.040107377
146	0xbcec4ea3	-0.02884609
147	0xbd1ff87f	-0.039055344
148	0xbd71e697	-0.0590578
149	0xbd59c8a6	-0.05316987
150	0xbc8e11ec	-0.01734253
151	0xbcf7b323	-0.030236786
152	0xbdffcfe6	-0.12490825
153	0xbd00f6a9	-0.031485233
154	0xbe098743	-0.13430505
155	0x3de25769	0.110518284
156	0x3e2da9d8	0.16959321
157	0x3e075f5d	0.13219972
158	0x3de02af8	0.10945696
159	0xbd96df81	-0.07366849
160	0x3d7f1cc7	0.062283304
161	0x3e2cccc8	0.16874993
162	0x3e7d0603	0.24709325
163	0x3e0e5d73	0.13902836
164	0x3cdf4886	0.027256262
165	0xbe17f8c9	-0.14840998
166	0xbe022105	-0.12707908
167	0xbd42891e	-0.047494046
168	0x3bd3f896	0.0064688427
169	0x3cd10a19	0.02551751
170	0x3d2d0d23	0.042248856
171	0xbc25ab3a	-0.010111624
172	0xbdcaa3fe	-0.0989456
173	0x3c32bb72	0.010908948
174	0xbd3c67bd	-0.04599737
175	0x3c71eab4	0.01476543
176	0x3d9fb135	0.077974714
177	0x3c0e5f82	0.008689763
178	0xbd9347eb	-0.07191452
179	0xbdea5547	-0.114420466
180	0xbc57f09b	-0.013179923
181	0x3cd11d00	0.025526524
182	0x3d7c0fd6	0.06153854
183	0x3d695c93	0.05697305
184	0x3da9aba8	0.08284694
185	0x3d6bfe19	0.057615373
186	0x3c988592	0.018618379
187	0x3d80de99	0.06292457
188	0x3db53944	0.08848813
189	0xbc01b046	-0.007915562
190	0xbb7f7ecb	-0.0038985487
191	0x3d0db5b2	0.034597106
192	0xbdd81431	-0.10550726
193	0x3d3e80b0	0.046509445
194	0x3d5f5b7f	0.054530617
195	0x3c5cf169	0.013485291
196	0xbc881acb	-0.016614338
197	0xbdb20d64	-0.0869396
198	0xbe0b2f9d	-0.13592382
199	0x3d39947b	0.045307618
200	0x3dd2b232	0.10287894
201	0x3d9e5854	0.07731691
202	0x3d403d6d	0.04693358
203	0x3b822c73	0.003972584
204	0x3d7978f2	0.060906358
205	0x3da9dea5	0.08294419
206	0x3dfa352b	0.12217172
207	0x3d1520a2	0.036408074
208	0xbd9876ed	-0.07444558
209	0xbdb2a6c6	-0.08723216
210	0x3db7019e	0.08935855
211	0x3d053582	0.032521732
212	0x3da7a91b	0.08186551
213	0xbda82675	-0.0821046
214	0xbd4196e3	-0.047263037
215	0x3d8aa975	0.067706026
216	0xbd498cd2	-0.049206562
217	0xbd400168	-0.04687634
218	0xbc792297	-0.015206001
219	0xbd391ae0	-0.045191646
220	0x3d7fcf3c	0.062453493
221	0x3c53ed2e	0.012934966
222	0xbdc554a5	-0.09635285
223	0xbd0687e2	-0.03284443
224	0xbc5d3084	-0.013500337
225	0xbb87cb57	-0.004144113
226	0x3dc2fe4f	0.09521162
227	0xbd11f49c	-0.03563367
228	0xbd61c36a	-0.055118002
229	0xbda4e312	-0.08051123
230	0x3cc1b5e3	0.0236463
231	0x3d18e802	0.037330635
232	0x3db9ecd7	0.09078377
233	0x3dd3043f	0.10303544
234	0xbcb04b4c	-0.02152028
235	0x3ce59ed6	0.02802984
236	0xbc9a91b2	-0.018868301
237	0xbdd04b10	-0.10170567
238	0x3c0f3a55	0.008741935
239	0xbd44d4f7	-0.04805466
240	0xbdd784dd	-0.105233885
241	0xbe0fa031	-0.14025952
242	0xbe28a2d3	-0.16468363
243	0xbe0165ab	-0.1263644
244	0xbc14a29d	-0.009071973
245	0xbdceb0ff	-0.10092353
246	0xbe1da877	-0.15396295
247	0xbcdf4697	-0.02725534
248	0x3d1002d4	0.035158947
249	0x3c7a58e6	0.015279984
250	0xbd787ab8	-0.06066391
251	0xbd7e8b27	-0.062144425
252	0x3c8bb896	0.01705579
253	0x3d6563fa	0.05600355
254	0xbd934313	-0.07190528
255	0x3b203f50	0.00244518

bias f4 [16]
0	0x3d076a00	0.033060074
1	0xbc33a865	-0.010965441
2	0x3d37a842	0.044838198
3	0x3ce21843	0.02759946
4	0xbdae321e	-0.08505653
5	0xbdbb1e3a	-0.09136625
6	0xbcf8bde4	-0.030363984
7	0xbd5f3ffb	-0.054504376
8	0x3c4dc47e	0.012559054
9	0xbcbc172a	-0.022960264
10	0x3d504e5c	0.05085598
11	0x3cea7a8f	0.028622894
12	0x3cadf0dc	0.021233015
13	0x3b73f759	0.0037226288
14	0x3d49b5ed	0.049245764
15	0xbd2b6e13	-0.04185302

weight f4 [120, 400]
0	0xbbb5baee	-0.0055459654
1	0xbc463fe9	-0.012100198
2	0xbd1844cb	-0.03717498
3	0x3d08854e	0.033330254
4	0x3cb83367	0.022485448
5	0x3ccaacef	0.024740664
6	0xbccf785b	-0.025325945
7	0xbcaba05a	-0.020950485
8	0x3d3ea18d	0.046540786
9	0x3d13626f	0.035982545
10	0x3c0e937c	0.008702155
11	0x3b3741d2	0.0027962816
12	0xbcb32c4f	-0.021871714
13	0x3ce1b623	0.02755267
14	0x3d21aaa6	0.039469384
15	0x3cabc131	0.020966144
16	0xbd28d70d	-0.041220713
17	0x3d05d546	0.032674097
18	0xbcce26cd	-0.025164986
19	0xbc862c2f	-0.01637849
20	0xbca082f9	-0.019593703
21	0xbcf61ac3	-0.030042058
22	0x3ba8f277	0.005155857
23	0xbc3069c2	-0.010767402
24	0xbb0030f6	-0.0019560433
25	0xbd3ebf33	-0.04656906
26	0xbc7df769	-0.015500882
27	0x3c9eaf4f	0.019370703
28	0x3c898741	0.016788127
29	0xbd34dddb	-0.04415689
30	0x3d4bf1a5	0.049790997
31	0x3cf888c2	0.030338649
32	0x3d26be3a	0.040708758
33	0xbcb86c52	-0.022512589
34	0xbc31c587	-0.010850317
35	0xbc0dd84c	-0.008657526
36	0x3d1c166f	0.03810733
37	0x3d27d675	0.040976007
38	0xbd317a85	-0.043329734
39	0xbd42a72e	-0.047522716
40	0xbd0005bd	-0.031255472
41	0xbbf30b92	-0.007417151
42	0xbb78c9ef	-0.0037962159
43	0x3adfc02e	0.0017070824
44	0xbc6e5abd	-0.014548001
45	0xbd1a55da	-0.03767953
46	0xbd20d0ba	-0.039261557
47	0xbd06317f	-0.032762047
48	0x3d16b0e4	0.03678979
49	0x3d49ac07	0.049236324
50	0x3d1a7c35	0.03771611
51	0xbcec65b4	-0.02885709
52	0x3be6431a	0.007027042
53	0xbd14f660	-0.036367774
54	0xbc0daaa7	-0.008646644
55	0x3ca0a96a	0.019612033
56	0x3c17f48b	0.009274612
57	0xbc29c82f	-0.010362669
58	0xbbd2c59a	-0.0064322473
59	0x3cf2d9a3	0.029644793
60	0x3cd8e845	0.026477942
61	0xbd263494	-0.040577486
62	0xbd307d1c	-0.043088064
63	0x3d10d4b8	0.035359114
64	0x3d0f545f	0.034992572
65	0x3c98869a	0.01861887
66	0xbb547446	-0.0032417937
67	0xbcfb8cb3	-0.030706739
68	0xbc221777	-0.00989329
69	0x3d1bb8d0	0.038018048
70	0xbc87680f	-0.016529111
71	0xbc8221f6	-0.015885334
72	0x3d023a1e	0.031793706
73	0x3cc81085	0.02442194
74	0xbd3ce475	-0.04611631
75	0xbcc76d32	-0.02434406
76	0xbc6bfa5a	-0.01440295
77	0xbd2959ef	-0.041345533
78	0x3bf70f2b	0.00753965
79	0xbd22789d	-0.039665807
80	0x3d103e49	0.03521565
81	0xbc7fb200	-0.015606403
82	0x3c14c022	0.009079011
83	0xbc3558db	-0.011068548
84	0xbd05f8c7	-0.032707956
85	0xbd2b6c2d	-0.04185121
86	0x3cbb2386	0.022844087
87	0x3b54f51a	0.0032494725
88	0x3cd42ff8	0.02590178
89	0xbc283d88	-0.010268576
90	0xbd2649f5	-0.040597875
91	0xbb848499	-0.004044127
92	0xbd1a3313	-0.037646364
93	0x3d098248	0.03357151
94	0xbd027351	-0.031848256
95	0x3ca28c42	0.01984227
96	0x3cd133f7	0.025537474
97	0x3bb4984b	0.005511319
98	0xbd45f471	-0.04832882
99	0xbce382d6	-0.027772348
100	0xbd190312	-0.037356444
101	0xbd26792a	-0.040642895
102	0x3d484e36	0.048902713
103	0xbaf1d244	-0.0018449505
104	0x3d16a14d	0.036774922
105	0xbcc4c585	-0.024019966
106	0x3cde1657	0.027110262
107	0xbb487f76	-0.003059355
108	0xbbeb1b23	-0.007174866
109	0xbbd4f0ca	-0.006498431
110	0x3c718a95	0.014742513
111	0x3bfad582	0.0076548466
112	0xbc50ac15	-0.01273634
113	0xbd17379a	-0.03691826
114	0xbd22bdab	-0.039731663
115	0xbc5fb690	-0.013654366
116	0xbca29470	-0.019846171
117	0x3ba43603	0.0050113215
118	0x3ceaab62	0.028646175
119	0x3b3106e7	0.002701217
120	0xbcac0e7f	-0.021003006
121	0x3cf941dc	0.030426912
122	0x3c9be6e4	0.019030996
123	0x3ce05116	0.027382415
124	0x3d00299c	0.03128968
125	0xbd07401f	-0.033020135
126	0xbceef370	-0.029168814
127	0x3d35676a	0.044288076
128	0x3ccf7d98	0.025328442
129	0x3d28e6a8	0.041235596
130	0xbd0f46b1	-0.034979526
131	0xbd003382	-0.03129912
132	0xbd18459e	-0.037175767
133	0xbccaa376	-0.024736147
134	0xbbcc4a73	-0.006234461
135	0xbd13e98d	-0.036111403
136	0x3c934c17	0.017980618
137	0x3cf9c345	0.03048862
138	0x3c98467c	0.018588297
139	0x3d41bd3e	0.047299616
140	0x3c8d51cb	0.017250916
141	0x3d31c8cd	0.04340439
142	0xbcb34476	-0.02188323
143	0x3ca16219	0.019700097
144	0xbcdc415d	-0.026886636
145	0x3c29361e	0.010327844
146	0xbccd46d6	-0.025058191
147	0x3d337625	0.043813843
148	0x3d476c21	0.048687104
149	0x3d023f29	0.031798515
150	0x3d02712f	0.03184622
151	0xbd359910	-0.044335425
152	0x3d108bae	0.03528946
153	0x3c5a6e1a	0.013331914
154	0xbc987308	-0.018609539
155	0xbb0f0dc4	-0.0021828273
156	0x3cf8f36d	0.030389512
157	0x3cc1df9d	0.023666197
158	0xbd2df3fa	-0.042469002
159	0x3c1608f0	0.009157404
160	0x3d1046d1	0.035223786
161	0x3c499d73	0.012305605
162	0x3cb2a715	0.021808187
163	0xbce79c35	-0.028272728
164	0xbd041ead	-0.032255817
165	0xbcbe6d1d	-0.023245389
166	0x3d063812	0.032768317
167	0x3c1450f2	0.009052502
168	0xbce172e8	-0.027520612
169	0xbd4825ed	-0.048864294
170	0x3cafa631	0.02144155
171	0xbcb73386	-0.022363435
172	0x3c56c595	0.013108631
173	0xbc05dbdd	-0.008170095
174	0x3d2f3329	0.0427734
175	0xbc9f308c	-0.019432329
176	0xbd2858db	-0.041100364
177	0xbc1ac338	-0.009445958
178	0x3cde2d48	0.027121201
179	0x3c17840a	0.009247789
180	0xbca6a623	-0.020342892
181	0xbd40a61d	-0.047033418
182	0xbca94b6b	-0.020665845
183	0xbca7dbdc	-0.02049058
184	0x3b68e2f3	0.0035535663
185	0xbd408e03	-0.047010433
186	0x3c87976e	0.0165517
187	0xbc7003d9	-0.014649355
188	0x3c543958	0.012953125
189	0x3cf3557d	0.02970385
190	0xbd2a0556	-0.041508995
191	0xbcdcf193	-0.02697066
192	0xbd30f5d5	-0.043203194
193	0xbbcb5780	-0.006205499
194	0x3d2dd0d9	0.0424355
195	0xbce57e23	-0.028014248
196	0xbb0a21f4	-0.0021077367
197	0x3d15f044	0.03660609
198	0xbd3e3e5f	-0.0464462
199	0xbd4489e1	-0.047983054
200	0xbd290f2e	-0.041274242
201	0x3c895dab	0.016768297
202	0xbc8e26c2	-0.017352466
203	0x3cc1c00c	0.023651145
204	0x3c2d1415	0.01056387
205	0xbcb95188	-0.022621885
206	0xbd29a3bd	-0.04141592
207	0x3d1cb1e4	0.038255587
208	0x3d26713e	0.04063534
209	0x3d4540b6	0.048157416
210	0x3ab640e6	0.0013904839
211	0x3a95472a	0.0011389006
212	0xbc8e45fd	-0.017367357
213	0xbcb5aa75	-0.022176007
214	0xbd17e312	-0.037081786
215	0x3b342033	0.0027485013
216	0x3be88d4b	0.0070969216
217	0x3c83dcd4	0.01609651
218	0x3c2b5c22	0.010458978
219	0x3c36a1ea	0.011147002
220	0xbce54dce	-0.027991202
221	0x3cd099ec	0.02546402
222	0x3c8b3771	0.01699421
223	0x3d297c3b	0.04137824
224	0xbd1e72c8	-0.038683683
225	0xbc892c89	-0.016744869
226	0xbd3ed478	-0.046589345
227	0x3b88dda9	0.0041768146
228	0x3d31409c	0.043274507
229	0xbc7999f2	-0.015234457
230	0xbccbdce5	-0.024885604
231	0xbc8f0349	-0.017457621
232	0xbcf8cd46	-0.03037132
233	0x3c5bb228	0.013409175
234	0xbc9de49e	-0.019274052
235	0xbd2c4d3b	-0.04206584
236	0xbba55337	-0.0050453204
237	0xbb7ccafa	-0.0038573132
238	0xbd3b9f94	-0.045806482
239	0xbcad3567	-0.021143628
240	0xbbf0a990	-0.007344432
241	0x3d2b1aa1	0.041773442
242	0x3c78a4f2	0.015176045
243	0xbd15cfa9	-0.036574993
244	0x3c85c274	0.016328074
245	0x3c6fd53c	0.014638241
246	0xbcdcb877	-0.026943428
247	0xb8fb0702	-0.00011969918
248	0xbc2cb20c	-0.010540497
249	0xbd452b34	-0.048136905
250	0xbce0b214	-0.027428664
251	0xbcebce66	-0.028784942
252	0xbd3ad928	-0.045617253
253	0xbbe30216	-0.006927739
254	0xbc4662bf	-0.012108504
255	0x3c338403	0.010956767

bias f4 [120]
0	0x3cb7a01d	0.022415215
1	0x3d1eaf52	0.038741417
2	0xbcbae864	-0.02281589
3	0x3d12357c	0.035695538
4	0x3d56059f	0.052251454
5	0x3ccad008	0.0247574
6	0xbcbcfb63	-0.02306909
7	0xbd1b652e	-0.03793829
8	0xbd3264c1	-0.043553118
9	0xbc90d3db	-0.017679146
10	0x3bb20cc7	0.005433652
11	0xbd4933a4	-0.049121514
12	0x3d2c9763	0.04213656
13	0xbd0b2fa2	-0.033980973
14	0x3916fc4c	0.00014399103
15	0xbcd85905	-0.026409635
16	0x3cdacedd	0.026709968
17	0xbcbacefa	-0.022803772
18	0xbb69de6c	-0.0035685552
19	0x3d4da7c1	0.05020881
20	0x3d4a811e	0.049439542
21	0xbb8a5446	-0.004221472
22	0xbcd1ffd6	-0.025634687
23	0x3d235012	0.039871283
24	0x3bcd98ed	0.0062743337
25	0x3c00ca4e	0.007860733
26	0x3d3cfe9b	0.04614125
27	0xbba4dc7e	-0.0050311675
28	0xbd1655fa	-0.036703087
29	0x3c5956df	0.013265341
30	0xbd083084	-0.033249393
31	0xbc1d660f	-0.009606852
32	0x3c1e6768	0.009668209
33	0x3b3cde30	0.0028818958
34	0xbc040f66	-0.008060312
35	0xbc755f80	-0.014976382
36	0xbc15949d	-0.00912967
37	0x3ca889b3	0.020573473
38	0xbbe4900c	-0.0069751795
39	0x3cbc1848	0.022960797
40	0x3d3f5879	0.046715233
41	0xbc013371	-0.0078858
42	0x3d33c8d6	0.043892704
43	0xbc98077c	-0.018558256
44	0x3d2de9a1	0.042459134
45	0x3b20bddd	0.002452723
46	0x3ae9ba39	0.0017831988
47	0xbc9cf3ee	-0.019159283
48	0xbd3e3398	-0.046435922
49	0x3d423736	0.047415935
50	0xbd22b864	-0.03972663
51	0xbcc3f337	-0.023919685
52	0x3d0f9f8a	0.035064258
53	0x3d1740ce	0.036927037
54	0x3d5fb710	0.05461794
55	0xbd1b89d0	-0.037973225
56	0x3d00ed66	0.0314764
57	0x3cdfe8f1	0.027332755
58	0x3c5a2559	0.013314568
59	0x3ccef413	0.025262868
60	0xbc85524c	-0.016274594
61	0xbc89efe0	-0.016838014
62	0x3cce9c85	0.025221119
63	0xbd21aae8	-0.03946963
64	0xbc8fb10e	-0.017540481
65	0xbbca7e2a	-0.0061795907
66	0xb807543f	-3.226497e-05
67	0xbd3fe463	-0.046848666
68	0xbd15909b	-0.03651486
69	0x3d1ae18b	0.03781275
70	0x3d19742c	0.037464306
71	0xbd36575a	-0.0445169
72	0xbd291233	-0.04127712
73	0xbccd0eaa	-0.025031406
74	0xbd19d60d	-0.03755765
75	0xbb3995b7	-0.0028317997
76	0x3b157210	0.0022803582
77	0x3c096462	0.0083857495
78	0x3bb55ce2	0.005534754
79	0xbcec1f99	-0.02882366
80	0xbd038d18	-0.03211698
81	0x3d0761d0	0.033052266
82	0x3ba5788e	0.0050497716
83	0xbcfeb712	-0.031093154
84	0x3be653dd	0.0070290403
85	0x3d4b10b2	0.04957647
86	0x3cc9d470	0.02463743
87	0xbc5826d6	-0.013192853
88	0xbd24ae2d	-0.04020517
89	0x3d2c3916	0.04204663
90	0x3cf9c386	0.03048874
91	0xbc0a8e4f	-0.008456781
92	0x3ca2eebb	0.019889226
93	0xbc70f41e	-0.01470664
94	0xbcc3beb2	-0.023894642
95	0xbcc8974b	-0.024486205
96	0xbcedffe7	-0.029052688
97	0xbcb2b26a	-0.02181359
98	0xbd224e05	-0.039625186
99	0xbb803ad9	-0.003913265
100	0xbc15b33d	-0.009136972
101	0x3d49e601	0.049291614
102	0x3b12d5b0	0.00224052
103	0xbb42a9ad	-0.0029703185
104	0xbd3beb5c	-0.045878753
105	0xbc72c618	-0.014817737
106	0xbd20a219	-0.03921709
107	0x3c0be054	0.008537371
108	0xbcba611f	-0.02275139
109	0xbd2c7f4b	-0.042113584
110	0xbb6594f2	-0.0035031405
111	0xbd29f578	-0.041493863
112	0xbcb7c0c4	-0.022430785
113	0x3d4a8fbc	0.049453482
114	0x3d2e20f3	0.04251189
115	0xbd140ed6	-0.03614696
116	0xbcd0f009	-0.025505083
117	0xbca3c070	-0.019989222
118	0x3d0733cf	0.033008393
119	0xbc938929	-0.018009739

weight f4 [84, 120]
0	0xbd891e9a	-0.0669529
1	0xbd60d564	-0.054891005
2	0xbd903a30	-0.070423484
3	0x3d1ead57	0.03873953
4	0xbc5aa936	-0.013346007
5	0xbd11b468	-0.03557244
6	0x3c59e44c	0.013299059
7	0xbd1e7509	-0.038685832
8	0xbced9f76	-0.029006701
9	0xbbdb050a	-0.0066839503
10	0x3b349c8b	0.0027559127
11	0xbdaddd4a	-0.08489473
12	0x3da8102a	0.08206208
13	0xbd6e3465	-0.058155436
14	0xbcc70fe0	-0.024299562
15	0x3a897493	0.0010487012
16	0xbd60d621	-0.05489171
17	0x3d9882a3	0.07446792
18	0xbd1eb460	-0.038746238
19	0xbd503f54	-0.050841644
20	0x3d0e3327	0.03471675
21	0xbc139900	-0.009008646
22	0xbca240a5	-0.019806216
23	0x3d8a39c2	0.06749298
24	0x3daaaa76	0.08333294
25	0xbdbaab7c	-0.09114739
26	0x3d201ec8	0.039091855
27	0x3ced083f	0.028934596
28	0x3caa7d39	0.020811664
29	0x3c101a46	0.008795327
30	0xbca21e40	-0.019789815
31	0xba885b40	-0.0010403171
32	0xbd2a04c8	-0.041508466
33	0xbd91be5a	-0.07116385
34	0xbcbb3f2f	-0.022857277
35	0x3d7e866d	0.062139917
36	0xbd8b6b10	-0.0680753
37	0x3d80ef46	0.06295638
38	0x3d714db5	0.058911998
39	0x3d9e5bb3	0.07732334
40	0xbc36d8bf	-0.011160075
41	0xbd873641	-0.06602145
42	0xbd89bf91	-0.067259915
43	0x3be9285f	0.0071154083
44	0x3d258988	0.040414363
45	0x3ccf1ba6	0.025281738
46	0xbbbbe9b0	-0.005734645
47	0xbd61c334	-0.0551178
48	0xbd90de59	-0.070736594
49	0x3aba7500	0.0014225543
50	0x3d69dabd	0.05709337
51	0x3d77a622	0.06046117
52	0x3d386dea	0.045026697
53	0xbda9dd71	-0.0829419
54	0x3dbb1892	0.09135546
55	0xbd63da57	-0.055628147
56	0xbd3b26cf	-0.045691308
57	0xbdb82fed	-0.08993516
58	0xbd81b946	-0.06334166
59	0xbdaeb0bc	-0.08529803
60	0xbd27c9c8	-0.040963918
61	0xbd8f8b19	-0.07008953
62	0xbdbda3d2	-0.09259762
63	0x3d90c765	0.070692815
64	0xbd1ab582	-0.037770756
65	0xbda9ddc0	-0.082942486
66	0x3d0086b6	0.03137847
67	0xbb65e167	-0.0035076977
68	0x3cf1a8d8	0.029499456
69	0xbd9d16e8	-0.07670385
70	0x3bae3b3a	0.005317119
71	0x3d5cea8f	0.05393463
72	0x3d4dea27	0.050272133
73	0x3c98aed5	0.018638054
74	0xbd2a8a1c	-0.041635618
75	0x3cba1202	0.022713665
76	0xbca6a043	-0.02034009
77	0x3d0ceedb	0.034407478
78	0xbda99ac1	-0.0828147
79	0x3d77d62b	0.06050698
80	0x3cfff97d	0.031246895
81	0xbc323c98	-0.0108787045
82	0x3d2e2a79	0.042520974
83	0xbd16da78	-0.03682944
84	0xbd7cd2e7	-0.06172457
85	0xbc7529a3	-0.01496354
86	0xbb958f99	-0.0045642373
87	0x3da7ac35	0.08187143
88	0xbdae912f	-0.08523785
89	0xbc6564db	-0.014001097
90	0xbcaf5f4a	-0.021407742
91	0x3ab23ec8	0.0013599033
92	0xbd96da63	-0.07365873
93	0xbd9657dd	-0.07340977
94	0xbd75f595	-0.06004866
95	0xbc377701	-0.011197806
96	0x3c6e7a11	0.01455547
97	0x3d6d53d8	0.057941288
98	0xbd45ac22	-0.04825986
99	0xbc9b9328	-0.018991068
100	0xbd34a414	-0.04410179
101	0x3b6a8a02	0.0035787825
102	0xbac889c4	-0.0015299846
103	0xbd5d6142	-0.05404783
104	0x3db4ef48	0.08834702
105	0xbd80575e	-0.06266664
106	0xbd000410	-0.031253874
107	0xbdb1c245	-0.08679632
108	0x3847ff76	4.7683214e-05
109	0x3db835f2	0.08994664
110	0xbd823167	-0.06357079
111	0xbd9b7d5d	-0.075922705
112	0xbd5003cb	-0.050784867
113	0xbd990921	-0.07472444
114	0xbceb0d8c	-0.028692983
115	0xbd676b74	-0.05649896
116	0x3ce9c0a6	0.028534245
117	0xbd9b62b5	-0.07587186
118	0x3db88dcc	0.090114206
119	0x3d2cae8c	0.04215865
120	0xbd9cac5d	-0.07650063
121	0x3db45673	0.088055514
122	0xbd962529	-0.073313065
123	0x3d0cbdf8	0.034360856
124	0x3cdf335c	0.02724617
125	0x3d0866b7	0.03330108
126	0xbd82d957	-0.063891105
127	0xbdb16b95	-0.08663098
128	0x3cfca0a1	0.030838313
129	0xbdb74425	-0.089485444
130	0x3ad4c4b7	0.0016232942
131	0xbc0a1d12	-0.008429782
132	0x3d4b9d0b	0.049710315
133	0xbd850037	-0.064941816
134	0x3d97a107	0.074037604
135	0x3d01bd6a	0.03167478
136	0x3d3cc9bd	0.04609083
137	0xbd1bae5b	-0.038008075
138	0x3d13cf85	0.036086578
139	0xbce47453	-0.027887499
140	0xbb0783d5	-0.0020677943
141	0x3c7964aa	0.015221754
142	0x3bdb6140	0.0066949427
143	0xbd085988	-0.03328851
144	0xbd4efe18	-0.05053529
145	0x3d35273e	0.044226877
146	0x3d71f88d	0.059074927
147	0xbcdda2bc	-0.027055137
148	0xbc1398a4	-0.00900856
149	0xbcfea584	-0.031084783
150	0xbda10ef1	-0.07864178
151	0x3d238694	0.039923266
152	0xbcc092e9	-0.023507552
153	0x3d04f5be	0.03246092
154	0x3b27c603	0.0025600202
155	0xbd86de17	-0.06585329
156	0x3cb74993	0.02237395
157	0x3c3699d6	0.011145076
158	0xbc62a70c	-0.013833772
159	0x3db0720e	0.08615504
160	0x3c03df7e	0.00804889
161	0xbd7f6b43	-0.062358152
162	0xbd988ef2	-0.0744914
163	0xbdacdffa	-0.08441158
164	0x3bd88fe6	0.006608951
165	0xbd89ba5c	-0.06724998
166	0x3cc3b614	0.023890533
167	0xbd3714ca	-0.04469756
168	0x3dafaf4b	0.08578356
169	0xbb58831d	-0.0033037134
170	0xbd69bea2	-0.057066567
171	0x3c6aa4c9	0.014321514
172	0xbd3fa7dd	-0.046790946
173	0xbd0fa3f5	-0.03506847
174	0x3d95875f	0.073012106
175	0x3d6b7b34	0.057490543
176	0xbd9e0945	-0.07716612
177	0x3da9f906	0.082994506
178	0x3db7914f	0.08963262
179	0xbd6464b8	-0.055760115
180	0xbd674104	-0.056458488
181	0x3da05e2a	0.0783046
182	0xbd9bd1b2	-0.076083556
183	0x3c2c0e71	0.01050149
184	0xbdb41c31	-0.087944396
185	0xbd83a6d9	-0.06428308
186	0x3c8420ee	0.016128983
187	0x3d23474f	0.039862927
188	0xbc559a29	-0.013037243
189	0xbc9aaebf	-0.018882154
190	0x3d98b066	0.0745552
191	0xbd9d44fd	-0.07679174
192	0xbd0c077f	-0.034186836
193	0x3d2e5f82	0.042571552
194	0xbdb58cc0	-0.088647366
195	0x3d6d3fa8	0.057922035
196	0x3d5febda	0.054668285
197	0xbda3bd88	-0.079951346
198	0x3d24d2c9	0.040240083
199	0xbd82259c	-0.0635483
200	0x3daa6b7a	0.08321281
201	0xbd085ae2	-0.033289798
202	0x3d08d15a	0.03340278
203	0xbd9e1a2a	-0.07719834
204	0x3c946f4b	0.018119475
205	0xbc9272e3	-0.017877048
206	0xbd9266fb	-0.07148548
207	0x3d88f76a	0.066878155
208	0xbd764c39	-0.060131285
209	0xbc7bcc65	-0.015368556
210	0x3db02914	0.08601585
211	0xbda47ae8	-0.08031255
212	0x3d236197	0.03988799
213	0x3d895e53	0.06707444
214	0x3d510982	0.051034458
215	0xbd31834d	-0.04333811
216	0xbbc05485	-0.0058694505
217	0x3caa30ed	0.020775283
218	0xbcce8701	-0.02521086
219	0xbd7a8490	-0.061161578
220	0xbcdf67b7	-0.027271135
221	0xbd471ee8	-0.04861346
222	0x3d13120d	0.035905886
223	0xbd8dc5af	-0.06922471
224	0x3d38cb43	0.04511572
225	0x3d0b9ece	0.034086995
226	0x3c52f9f3	0.012876975
227	0x3d7101e2	0.058839686
228	0xbd9a1dca	-0.07525213
229	0x3d5d96a9	0.05409876
230	0x3b619d11	0.0034425894
231	0xbd09fd3b	-0.033688765
232	0x3d9d771e	0.076887354
233	0x3b9a9306	0.0047172336
234	0xbda2d385	-0.079505004
235	0x3da58840	0.08082628
236	0xbc90d33c	-0.01767885
237	0xbb410b99	-0.0029456376
238	0xbd969110	-0.07351887
239	0x3d811fa3	0.06304862
240	0x3c860b49	0.016362803
241	0x3d9ab180	0.07553387
242	0xbccf7716	-0.02532534
243	0x3cb454a7	0.022013022
244	0x3ddc8427	0.107673936
245	0xbdb011ab	-0.0859712
246	0xbdcf6433	-0.10126533
247	0x3d48f7d8	0.049064487
248	0x3da0d18c	0.07852468
249	0x3cf10559	0.029421495
250	0xbd8ca7d7	-0.068679504
251	0x3d4e2477	0.050327744
252	0xbd5940d0	-0.053040326
253	0x3d3db90a	0.046319045
254	0x3d78f612	0.060781546
255	0x3d57cfdd	0.05268847

bias f4 [84]
0	0xbd9eae46	-0.07748084
1	0xbd9caec0	-0.076505184
2	0x3d39e993	0.04538877
3	0xbd7dd1cc	-0.061967656
4	0xbc4e5071	-0.012592421
5	0xbdb6c23d	-0.08923767
6	0x3bb490b1	0.0055104126
7	0x3c73ef67	0.014888621
8	0xbd711868	-0.058861166
9	0x3da32ceb	0.07967552
10	0x3d37d777	0.044883218
11	0x3be156e6	0.006876814
12	0xbd6d8f73	-0.057998132
13	0xbd89fb11	-0.0673734
14	0xbd45b9e9	-0.048273
15	0x3d095378	0.033526868
16	0x3c8fdcb2	0.01756129
17	0x3dc15345	0.094397105
18	0xbd852774	-0.06501666
19	0x3dd604c0	0.10450125
20	0x3d37352d	0.044728447
21	0x3d14b3b0	0.036304176
22	0x3dc76dd9	0.09737749
23	0x3dc02812	0.09382643
24	0x3ca0fd3a	0.019651998
25	0x3d9a39ea	0.075305775
26	0x3cc44288	0.023957506
27	0x3befb1e6	0.0073149083
28	0x3d7dd63f	0.0619719
29	0x3d45c1a7	0.048280384
30	0xbd0417da	-0.03224931
31	0xbce9b83d	-0.028530234
32	0xbd4bf86a	-0.049797453
33	0x3ceb5c8d	0.028730655
34	0x3d764e73	0.06013341
35	0x3d92718d	0.07150564
36	0xbdbee6e2	-0.09321381
37	0xbd8e788a	-0.06956585
38	0x3cfd1416	0.030893367
39	0x3d8d6dc1	0.069056995
40	0x3d9a05dc	0.07520649
41	0x3aa411d3	0.0012517519
42	0xbd963dca	-0.07336004
43	0xbbfaee65	-0.0076578134
44	0xbd77318e	-0.060349993
45	0xbc748981	-0.014925362
46	0xbce06b22	-0.027394835
47	0x3d6da4cf	0.0580185
48	0x3cc1254c	0.023577355
49	0x3d766860	0.060158134
50	0xbbf22687	-0.0073898467
51	0xbc902852	-0.017597351
52	0x3d221817	0.039573755
53	0x3d26aa2c	0.040689632
54	0x3d031c9f	0.032009717
55	0xbc484f55	-0.0122259455
56	0x3d4283bf	0.047488924
57	0x3cc32153	0.023819601
58	0xbd717069	-0.058945093
59	0xbd64e720	-0.05588448
60	0xbd0d47ba	-0.034492232
61	0xbcbe2422	-0.023210589
62	0xba44eed1	-0.0007512393
63	0xbc143f9f	-0.009048372
64	0xbd47f8cd	-0.04882126
65	0xbcf43429	-0.029810028
66	0xbcf30e2b	-0.029669842
67	0x3d73f8f5	0.059563596
68	0xbd2d64d0	-0.04233247
69	0x3c67c253	0.014145452
70	0x3dbe1323	0.09280994
71	0x3c44953a	0.011998469
72	0xbc8a0f49	-0.016852992
73	0x3d5b33a6	0.053516053
74	0xbcb43eb7	-0.022002561
75	0x3d981d4c	0.07427463
76	0xbd78f75b	-0.06078277
77	0x3d70631d	0.05868827
78	0x3caebc4f	0.021330027
79	0x3d8eba98	0.06969184
80	0xbc48b8ee	-0.012251122
81	0xbdb87915	-0.090074696
82	0x3cea9885	0.02863718
83	0x3cebd4bc	0.028787963

weight f4 [10, 84]
0	0x3d75adc5	0.059980173
1	0xbd2046af	-0.03912991
2	0xbd62b60b	-0.05534939
3	0x3e62a547	0.22133361
4	0xbe162d6b	-0.14665763
5	0xbd7c9b71	-0.061671678
6	0x3c51845b	0.012787904
7	0x3d6f71bb	0.05845807
8	0xbe19957b	-0.14998429
9	0x3de2d367	0.11075478
10	0xbd697129	-0.056992684
11	0x3c972c97	0.01845388
12	0x3e3324b7	0.17494474
13	0x3e044b5d	0.12919374
14	0x3b4cb305	0.0031234634
15	0xbcb67314	-0.02227167
16	0xbe15c630	-0.14626384
17	0xbe4f017f	-0.20215414
18	0x3d353d68	0.044248015
19	0x3d7aa328	0.061190754
20	0xbca0fe7c	-0.019652598
21	0x3e15acd2	0.14616707
22	0xbe068241	-0.13135625
23	0xbe6a5d61	-0.22887184
24	0x3d8376ca	0.064191416
25	0xbce8893a	-0.028385747
26	0xbd1c1ce8	-0.038113505
27	0x3d3ac5e4	0.04559888
28	0xbd6b4e75	-0.05744787
29	0x3e1cc625	0.15309961
30	0xbd93b71e	-0.07212661
31	0x3dc8365f	0.097759955
32	0xbd3edeba	-0.046599127
33	0xbb53db30	-0.003232669
34	0x3d8a0603	0.06739428
35	0x3dce28a7	0.100663476
36	0xbd9fbcc4	-0.07799676
37	0xbda1741d	-0.07883475
38	0x3d8fb407	0.07016759
39	0x3e0f26ab	0.13979594
40	0xbe51a22f	-0.20472024
41	0x3db37e02	0.087642685
42	0xbdeaa666	-0.11457519
43	0x3dad6ad7	0.08467644
44	0x3e1a83b5	0.15089305
45	0x3e0cc0e4	0.13745457
46	0x3d3345e2	0.043767817
47	0xbdd39c1f	-0.10332512
48	0x3d91ec90	0.07125199
49	0x3d34994c	0.044091508
50	0x3d83724e	0.06418286
51	0xbdfb4e40	-0.122707844
52	0xbd73889c	-0.059456453
53	0x3dad589e	0.08464168
54	0x3e7bdafd	0.24595256
55	0xbd0005a3	-0.031255376
56	0xbdf3167e	-0.118695244
57	0xbe11c824	-0.14236504
58	0xbe116f59	-0.14202632
59	0xbe4d9ff7	-0.20080553
60	0x3cabe6b5	0.020984033
61	0xbdf5e4d6	-0.120065376
62	0x3d3d4d5f	0.046216365
63	0xbd462000	-0.04837036
64	0x3ac2fe9f	0.0014876908
65	0x3e6944f8	0.22780216
66	0xbdc0c223	-0.09412029
67	0x3cbc8315	0.023011724
68	0xbd1cd38a	-0.038287677
69	0xbd96b40a	-0.073585585
70	0xbd2a5e90	-0.041594088
71	0xbe04ef7f	-0.12981986
72	0x3e0838b4	0.1330288
73	0xbe30b9a1	-0.17258312
74	0xbd863249	-0.0655256
75	0xbd26efd1	-0.04075605
76	0xbd48d409	-0.049030337
77	0xbda6eacc	-0.08150253
78	0xbdea4595	-0.11439053
79	0x3ddb4260	0.107060194
80	0x3e0a5086	0.1350728
81	0x3dbc4c03	0.091941856
82	0xbd89bfbd	-0.06726024
83	0x3c9d0c4f	0.019170908
84	0x3dbd0031	0.09228552
85	0xbdc77c4e	-0.09740506
86	0xbe7f9064	-0.24957424
87	0xbe2be1d9	-0.16785373
88	0xbd10bbac	-0.035335228
89	0xbbf4582f	-0.0074568014
90	0x3dc0609b	0.09393426
91	0x3d9edfb1	0.077575095
92	0xbe15655f	-0.14589451
93	0x3d7b5e94	0.061369494
94	0x3c25da4f	0.01012285
95	0xbd19d0ef	-0.03755277
96	0xbda5d793	-0.08097758
97	0x3d8d4c39	0.06899304
98	0xbdf0543e	-0.11734818
99	0xba9e1d61	-0.0012063199
100	0xbe16d59d	-0.14729924
101	0x3d3612c0	0.044451475
102	0x3c35459e	0.011063961
103	0xbcdde793	-0.027087962
104	0x3e8697a1	0.2628756
105	0xbddc5da0	-0.10760045
106	0x3d38c30d	0.04510789
107	0xbd193588	-0.037404567
108	0x3df425e9	0.11921293
109	0xbe2c50da	-0.16827717
110	0xbe70a7b1	-0.23501469
111	0x3e2323f0	0.15931678
112	0x3d9b8bbd	0.07595012
113	0x3cd1fef2	0.025634263
114	0x3db3a0fc	0.0877094
115	0xbe3fe061	-0.18737938
116	0xbd42c962	-0.047555335
117	0xbd5eef59	-0.05442748
118	0x3e8275d3	0.25480518
119	0xbd03c7f6	-0.03217312
120	0x3e05c5d3	0.13063745
121	0xbd87cefd	-0.06631277
122	0x3d834294	0.06409183
123	0x3e250782	0.16116145
124	0x3e250450	0.16114926
125	0xbbb5f313	-0.0055526583
126	0xbd6e5e59	-0.058195446
127	0x3e4eab81	0.20182611
128	0xbd18b696	-0.037283503
129	0xbdeb3a3a	-0.11485715
130	0xbcf1ff2a	-0.029540617
131	0xbd3db5a9	-0.046315823
132	0xbcdfc8c5	-0.027317414
133	0x3e24d856	0.1609815
134	0xbcf0fea8	-0.029418305
135	0x3d94d188	0.072665274
136	0xbae156f1	-0.0017192048
137	0xbdc2f0e3	-0.09518602
138	0xbe0a3b9b	-0.134993
139	0x3dd1d585	0.10245804
140	0x3e8730b5	0.26404348
141	0x3d292c5c	0.04130207
142	0xbd04a9ba	-0.032388426
143	0x3e2bc402	0.1677399
144	0xbe590ae8	-0.21195567
145	0x3bf661ae	0.0075189685
146	0x3d8ab2de	0.067723975
147	0x3ccb92f9	0.024850355
148	0x3d849654	0.06473985
149	0xbe0fa584	-0.14027983
150	0x3e00df85	0.12585266
151	0x3a282833	0.00064146816
152	0xbe024814	-0.12722808
153	0x3c945ad3	0.018109715
154	0xbe1bef6d	-0.15228052
155	0x3cc5ac60	0.024130046
156	0xbdd02587	-0.10163408
157	0xbde543ff	-0.1119461
158	0xbc3277ea	-0.010892848
159	0x3e7553d3	0.23957758
160	0xbdca8d2f	-0.0989021
161	0x3dbf123e	0.09329651
162	0x3dc296af	0.09501397
163	0x3d9410dd	0.07229779
164	0x3d493d41	0.049130682
165	0x3dbba0de	0.09161542
166	0x3dddc157	0.10827892
167	0x3db5feea	0.088865116
168	0xbcf60a05	-0.030034075
169	0xbd3b8ac8	-0.04578665
170	0xbcaa0f27	-0.020759178
171	0x3d959887	0.07304483
172	0x3da33518	0.07969111
173	0xbd3b38d8	-0.045708507
174	0xbd981161	-0.0742519
175	0xbdc8d420	-0.09806085
176	0xbd9c9a81	-0.07646657
177	0x3c8f2040	0.017471433
178	0x3d412aa9	0.047159825
179	0x3de945e0	0.11390281
180	0xbdcc17f3	-0.099655055
181	0xbe5a43e2	-0.21314958
182	0xbc0c6e25	-0.008571182
183	0xbe277d63	-0.16356425
184	0x3cb87102	0.022514824
185	0x3e320d37	0.17387854
186	0x3ddf9593	0.10917201
187	0x3e51f0d4	0.20502025
188	0xbe05b5a0	-0.13057566
189	0x3d0a277d	0.033729065
190	0xbe44286c	-0.19156045
191	0x3c83f74d	0.016109133
192	0x3e98deb8	0.2985742
193	0x3e3d70ac	0.18500012
194	0x3dc8b484	0.098000556
195	0xbdb0f592	-0.08640589
196	0xbc11cf0c	-0.0088994615
197	0xbd6c0d30	-0.057629764
198	0xbe0930e8	-0.13397563
199	0x3e79d991	0.24399401
200	0x3cd0460d	0.025424028
201	0x3dc2cbc8	0.095115244
202	0xbe30ad8c	-0.17253703
203	0x3cdee5d4	0.0272092
204	0xbdd74b6e	-0.10512434
205	0xbdc28861	-0.094986685
206	0x3db8fe6a	0.09032901
207	0xbd810f81	-0.06301785
208	0x3db662c4	0.08905557
209	0xbdba66bd	-0.09101627
210	0xbe08b8f3	-0.13351803
211	0xbdeac851	-0.114639886
212	0x3e4416bf	0.19149302
213	0x3e0b7dad	0.1362216
214	0xbc85a0ee	-0.016312089
215	0x3dde9ccd	0.10869751
216	0x3db58cbe	0.08864735
217	0xbde9a561	-0.11408497
218	0x3e4b05b7	0.19826399
219	0xbe3f0aaa	-0.18656412
220	0xbd6ffe6b	-0.05859224
221	0xbdb823d0	-0.08991206
222	0xbe4c7f09	-0.19970335
223	0xbcf0e2c9	-0.029405015
224	0x3e3acaca	0.1824142
225	0xbe34eb0d	-0.1766779
226	0xbe2437ab	-0.1603686
227	0xbde4c30c	-0.11170015
228	0xbce714ca	-0.028208155
229	0x3d00311a	0.031296827
230	0x3c00cc14	0.007861156
231	0x3d0d24c9	0.03445891
232	0x3e0c9a93	0.1373084
233	0x3d808755	0.062758125
234	0xbc139490	-0.009007588
235	0x3c1bad2b	0.009501736
236	0xbe9a32f2	-0.30116993
237	0xbcdb7ff0	-0.026794404
238	0xbda7eab2	-0.081990615
239	0xbd8141f5	-0.063114084
240	0xbdafd4e3	-0.08585527
241	0x3d0f62da	0.03500638
242	0xbe48dc8a	-0.19615379
243	0x3e4534e7	0.19258462
244	0x3e10afd5	0.14129575
245	0x3e6de84b	0.23233144
246	0x3dd6d949	0.104906626
247	0x3dc6aa30	0.097004294
248	0x3cc7dec4	0.024398215
249	0x3d347002	0.04405213
250	0xbe1e7f9c	-0.15478367
251	0xbdd1ae01	-0.10238267
252	0x3dcf0df2	0.10110082
253	0xbdb5a115	-0.088686146
254	0xbe274f59	-0.16338862
255	0xbdf64531	-0.12024916

bias f4 [10]
0	0xbd78ce5f	-0.060743686
1	0xbcb7e1ab	-0.022446474
2	0x3cd1eb00	0.025624752
3	0x3de6380d	0.112411596
4	0xbdc027c1	-0.093825825
5	0x3d210374	0.039309934
6	0x3d7f02de	0.062258594
7	0xbbbcb177	-0.00575846
8	0x3d06358e	0.032765917
9	0x3d4ea262	0.05044783
