models_nc/MNIST/data/model.pt (torch_old, 271054 bytes, 10 tensors)

weight f4 [6, 1, 5, 5]
000000 54 a2 09 3e 96 27 c5 3e 7b d4 b5 3e 27 97 40 3e
       0.1344083 0.38506764 0.35513672 0.1880766
000010 56 0e bc 3e 29 90 a6 3d 9a 25 0d 3e da e2 31 3d
       0.36729687 0.08132965 0.13783875 0.043429233
000020 07 7d 19 3e 7e f0 49 3e b2 03 5f be 57 a6 9d 3c
       0.149891 0.19720647 -0.21778753 0.019244356
000030 2a 9d 17 be fe b8 cd 3d 48 45 ad 3d bf 66 45 be
       -0.14806047 0.1004505 0.0846048 -0.19277476
000040 80 bf 76 be fb 94 a3 bd 20 a2 83 be 9d 70 a7 bd
       -0.24096489 -0.079874 -0.2570963 -0.08175776
000050 53 7c 45 be 93 79 64 be e8 8f 1a be e2 2e 04 be
       -0.19285707 -0.22312002 -0.15093958 -0.1290851
000060 70 1b 0c 3e 12 1c 1c be e4 13 e7 bd 5e bc a9 3e
       0.13682342 -0.15245083 -0.11283091 0.33151525
000070 ee 88 d4 3e 6d 1b 33 3e 6d e8 fd 3d 6e 0e a0 3e
       0.4151072 0.17490931 0.12397847 0.3126101
000080 35 84 10 3f 6c 77 f9 3e 39 b2 bd 3e 66 1c 84 3e
       0.5645173 0.48723924 0.37050036 0.25802916
000090 ac d2 3a 3e 3f e7 9c 3e 08 2c e8 3e c6 f7 8f 3e
       0.18244427 0.30645177 0.45346093 0.28118724
0000a0 c1 ac 27 be f2 13 cd bd fa 88 3a bd ee 27 87 3e
       -0.16374494 -0.1001357 -0.045540787 0.2639765
0000b0 b8 d3 11 3e aa f9 09 be c9 e1 71 be bb 88 a2 bd
       0.1424092 -0.13474146 -0.23621286 -0.079362355
0000c0 fa 0f ea bc b2 93 71 bc a0 39 de 3e ba ef b8 3e
       -0.028572071 -0.014744686 0.4340334 0.36120397
0000d0 57 d7 ad 3e 8d 17 a4 3e 1e a2 7d 3d cf a9 f7 3e
       0.33953354 0.32049218 0.061922185 0.4837174
0000e0 e2 72 ea 3e 78 39 8e bd 99 d3 5a 3c ae 53 b9 bb
       0.45790774 -0.06944555 0.013356113 -0.0056557273
0000f0 d4 c0 c3 3e 63 bf c0 ba 29 f6 b4 3d 7d 48 5f be
       0.38233054 -0.0014705475 0.08836014 -0.21804996
000100 3c 58 90 3d ec 69 fb 3d cf 4e 8f 3d 2f c1 0e 3e
       0.07048079 0.12276062 0.069974534 0.13940881
000110 f0 36 5c be 10 9c 14 be c6 7d 73 3d 60 40 86 3d
       -0.21505332 -0.14512658 0.05944612 0.06555247
000120 f6 d4 df bd e7 63 9c 3d 03 fb 0c be a8 8e 32 3d
       -0.10929291 0.07636242 -0.13767628 0.04359308
000130 ce 75 75 3e 8e 6d bf 3e fb c1 46 3e 82 df d4 bc
       0.2397072 0.3738827 0.19409935 -0.025985483
000140 a1 80 8d 3e fa f6 7d 3e eb 4d c8 3c b9 7e 01 3e
       0.276372 0.24801245 0.024451217 0.12645997
000150 84 ef 1d 3e 7f d7 15 3c ad 61 01 be b5 98 61 be
       0.15423399 0.009145617 -0.12634917 -0.2203091
000160 67 26 b5 bc 44 26 04 be f7 e6 b2 3d 3c 5b 86 be
       -0.022113038 -0.12905222 0.08735459 -0.2624148
000170 66 8d d4 bd bc 08 a9 bc 36 b9 3f be 76 e2 29 be
       -0.10378532 -0.020634048 -0.18722996 -0.16590294
000180 1e 07 5a be a8 b4 74 3d 8c 92 64 bd 48 01 18 3d
       -0.21291777 0.0597426 -0.05580382 0.037110597
000190 fc 2c 95 3e af d2 9e 3e 3b 4b 8b 3e 67 e4 f2 bd
       0.29135883 0.31020114 0.27205834 -0.118599705
0001a0 97 1c 33 bd d2 da 47 3d f9 2e c5 3d fd 10 96 bd
       -0.043728437 0.048792668 0.096281 -0.07327459
0001b0 4d b3 b8 bd 59 40 77 be 08 3e 98 3d c2 e9 a3 3e
       -0.09018574 -0.2414564 0.074337065 0.3201428
0001c0 76 34 74 3d 23 6f 95 be ae e3 e7 bd 4d 30 51 3e
       0.059620343 -0.29186353 -0.11322723 0.20428582
0001d0 a4 94 ad 3d b2 36 20 be 23 b5 28 3d 7b d3 7b be
       0.084756166 -0.15645865 0.04118837 -0.24592392
0001e0 6b 76 84 3e 5e a3 22 3d 43 7f 4d bd 69 ba 59 be
       0.25871596 0.03970658 -0.050170194 -0.21262516
0001f0 a7 56 62 bd 3a 80 44 be cc 21 0a 3d 65 27 0a be
       -0.05525842 -0.1918954 0.033723637 -0.1349159
000200 1e 08 4e be 58 28 d9 bd 22 1c 0e 3e 26 ce b7 bd
       -0.20120284 -0.10603398 0.1387792 -0.089748666
000210 3e 59 87 3d 73 21 fe bd c9 46 d8 3c 24 24 4e be
       0.066088185 -0.12408724 0.02640094 -0.20130974
000220 11 13 5a be 73 49 be bd 76 40 47 be be 10 17 3c
       -0.21296336 -0.09291353 -0.19458184 0.0092203
000230 8a ca 58 bd 51 27 a5 bd 25 5c 0e 3e 57 fd 26 be
       -0.05292753 -0.0806414 0.13902338 -0.16307579
000240 54 47 00 3e 9e 7d 90 bc ef 6d 1c 3e 54 ec c4 3d
       0.1252721 -0.017638024 0.15276311 0.096153885
000250 d1 00 50 3e 3b e7 b6 bd
       0.20312811 -0.089308225

bias f4 [6]
000000 bf 78 d3 bd 50 58 5f 3e f1 13 54 3e 99 d1 b7 3d
       -0.10325765 0.21811032 0.20710732 0.089755245
000010 ad 39 01 3c ec 45 21 3e
       0.007887286 0.1574933

weight f4 [16, 6, 5, 5]
000000 1b ee c8 bc 91 1f 88 3a 59 2a 38 3d 9f f2 05 3d
       -0.0245276 0.0010385384 0.04496226 0.032702085
000010 cb a1 11 bd c3 7c dc 3a f1 88 07 bd 78 9e 45 bd
       -0.03555469 0.001682185 -0.033089582 -0.04824683
000020 ef fa 4b 3c fe dc 09 bc 27 bb ea bc ee d3 94 bc
       0.012449964 -0.008414505 -0.028653694 -0.018167462
000030 b9 c7 fc bb 14 1b 61 3d 94 0e 6c bd d3 3e 65 bd
       -0.0077142385 0.054957464 -0.05763109 -0.055968117
000040 22 b6 21 3d 92 fc 1a 3c 46 d5 fd bc 4a 61 ae bd
       0.039480336 0.0094596315 -0.030985486 -0.0851465
000050 12 f2 08 3d cd 39 3e 3d 86 bd 9d bc d0 0c 0e bc
       0.03343398 0.046441842 -0.01925541 -0.008670047
000060 52 6f 05 3d b7 31 ac 3d 28 95 49 bd 32 67 6a bc
       0.032576866 0.0840792 -0.049214512 -0.01430683
000070 74 55 80 ba 87 e0 88 bc 8c ab 49 bd 9e cd 94 bd
       -0.0009791092 -0.016708625 -0.049235865 -0.07265781
000080 17 66 33 bd fb de 40 3d 18 07 46 bd 80 1a 83 3d
       -0.043798532 0.04708765 -0.04834661 0.06401539
000090 54 5d 24 bd 2f 14 30 3c 7d 20 81 3d f5 89 26 ba
       -0.040128067 0.010747 0.06305025 -0.00063529547
0000a0 fc db bf 3b 74 72 41 bd 8c 12 ce bd 54 58 8f 3d
       0.0058550816 -0.04722829 -0.10062131 0.06999269
0000b0 4e eb c5 3c 27 dd cb 3d a7 e1 82 3c 5d 70 5f 3d
       0.024160054 0.09954291 0.01597674 0.054550517
0000c0 8b 50 27 3d 6d 1b be 3d 44 4d 8e 3d 12 eb ba 3d
       0.040848296 0.09282575 0.06948331 0.09126867
0000d0 83 56 97 ba 8e 1a 51 3d 2b 79 e1 bc 7c 1c 61 bd
       -0.0011546168 0.051050715 -0.027523598 -0.054958805
0000e0 8d 27 80 3c 92 1f 91 3d b5 61 19 bd 52 fa 16 bd
       0.01564386 0.070861 -0.037446696 -0.036859818
0000f0 7b 7c 49 3b 73 39 22 3d ba 62 34 3c 8f e6 bc bc
       0.0030744362 0.03960557 0.011009866 -0.023059158
000100 43 7c cd 3c b4 10 1d 3d f2 04 76 bd 6c 46 b7 bd
       0.025083667 0.038346007 -0.06006331 -0.08948979
000110 53 64 60 bd 53 ef 8d 3c fc 2e 8f 3d 72 e3 00 3d
       -0.054783177 0.017326033 0.069913834 0.03146691
000120 8c e2 e9 3b 03 36 40 bd 6d 63 81 bd 16 b6 58 3c
       0.007137602 -0.04692651 -0.06317792 0.013227006
000130 1b bc 23 bd 80 80 c1 3d 4b 69 9d bc 0a a8 6f bd
       -0.039974313 0.094483376 -0.019215247 -0.058509864
000140 1c 8b 71 bd f0 e0 91 bd 47 78 12 bc 2d 4f 63 bd
       -0.058970556 -0.071229815 -0.008939809 -0.05549543
000150 b8 c2 d2 bb 23 36 02 ba 72 6d 94 bc b7 fb 4e 3c
       -0.0064319037 -0.00049671734 -0.018118594 0.012633256
000160 f3 27 b3 bd d7 28 19 bd ab f1 8b bd f3 fa 9c bd
       -0.08747854 -0.037392464 -0.06833204 -0.07665052
000170 da 18 cf 3c a5 0f 37 3d 97 56 01 bc 02 50 5d 3d
       0.025280405 0.044692654 -0.00789418 0.05403138
000180 e4 55 42 3d f4 15 db bc b3 c3 51 bc 1f 39 cc bc
       0.047445193 -0.026743867 -0.012803006 -0.024929581
000190 60 6f a0 bd 27 ef 11 bd 78 2c b4 bc b6 ad af 3d
       -0.07833743 -0.035628464 -0.02199386 0.085780546
0001a0 2d e8 88 bd 71 9c 19 3d d1 44 8e 3d bc e0 96 bc
       -0.06684909 0.03750271 0.069467194 -0.018417709
0001b0 c0 8a 4b 3c e3 5f 3a bc 8e 3d bf 3d 6b 49 a3 3d
       0.012423217 -0.0113754 0.093379125 0.07972988
0001c0 08 c3 31 bc b6 9e 44 3d 80 58 b8 3d ae 47 3b bd
       -0.010849722 0.04800292 0.09001255 -0.045722656
0001d0 27 f2 1a bd f1 07 87 3d 7e 1b 2c 3d 05 a8 bd bc
       -0.03782859 0.065933116 0.042018406 -0.023151407
0001e0 a7 ce 66 3d 1c 8e 77 3b 97 02 77 3d d2 f7 d8 3b
       0.056349423 0.0037773913 0.060305204 0.0066213394
0001f0 2f f7 8e bd c4 fb 2b 3d a6 6f a4 bd 33 da ac 3d
       -0.0698074 0.04198815 -0.08029108 0.08440056
000200 3e f9 59 bd 97 3b 9d 3c 14 90 96 bd 39 4c 7a bd
       -0.05321621 0.019193454 -0.073516995 -0.061107848
000210 85 ba d5 3c 6c 8b 90 bc 5a 2b 9a bc 87 29 8f bc
       0.026089916 -0.017644607 -0.0188195 -0.017475856
000220 fb 1b 36 3c 44 ab f7 3c d1 4f 25 bd 36 2c 90 bc
       0.0111150695 0.030233033 -0.040359322 -0.017599206
000230 8e 28 b8 bc bc 9b 53 3d 66 37 81 3d 73 ee d4 3c
       -0.022480275 0.05166219 0.063093945 0.025992608
000240 9a 3f 16 3d fb b7 ae 3b d4 c3 9e bd 42 45 6e bd
       0.03668175 0.005331991 -0.07752195 -0.05817152
000250 4c af 9d bd b2 63 4f 3d a8 9f ab bc d0 3f 8e 3d
       -0.07699451 0.050632186 -0.020950153 0.06945765
000260 e3 79 c2 bc 0f ae 96 bd 48 fa 01 bb c7 d7 82 bd
       -0.02373976 -0.07357418 -0.0019833017 -0.063888125
000270 25 5d bc bd 8e 27 29 3b fe c7 da bd a6 19 16 bd
       -0.091974534 0.002581093 -0.10682677 -0.036645554
000280 8b 77 6b bb 2b b6 0c bc 5b d0 55 3d f4 d1 d9 3d
       -0.0035929407 -0.008588354 0.052200656 0.106357485
000290 e5 d5 97 3d a8 c1 a8 3d 95 b8 d2 3d ce a2 24 3e
       0.07413844 0.08240062 0.102891125 0.1607773
0002a0 05 fb 0c 3e 6d f6 b3 3d 10 22 9b bc 8e 93 c6 3b
       0.13767631 0.08787236 -0.01893714 0.0060600704
0002b0 a0 5a f2 bc dc e5 a7 3d 19 1e ab 3d 29 a9 3a bb
       -0.029584229 0.08198139 0.0835535 -0.0028482175
0002c0 da 91 f0 bc 15 aa 21 be 9d 5b 44 be af e7 d3 bd
       -0.029366422 -0.15787537 -0.19175573 -0.103469245
0002d0 45 0d 93 bd c9 83 70 bd 6c ac 8f 3d 24 05 d4 3d
       -0.07180265 -0.05871943 0.07015309 0.10352543
0002e0 fe e6 2b 3d 2f 70 2d 3e 61 62 81 3e 16 33 84 3e
       0.04196834 0.16937326 0.2527037 0.25820225
0002f0 29 de e9 3d 82 28 41 3d 31 a7 08 3e 16 96 ba 3b
       0.11419327 0.047157772 0.13345028 0.005694161
000300 32 04 07 3d 79 75 05 3d f5 57 da 3c b5 08 4e be
       0.032962985 0.032582734 0.02665327 -0.20120509
000310 b6 13 d4 bd 9f 0c 30 bd eb d4 8f bd f2 e7 1b b9
       -0.10355322 -0.042980786 -0.07023033 -0.00014868358
000320 e8 ad f2 bb ae 65 6f bd 16 77 fd bd 08 53 1d be
       -0.007405985 -0.05844658 -0.123762295 -0.15363705
000330 0e 7c c4 bd 46 86 33 bc d3 bc 2b bd f3 21 c9 bd
       -0.09593974 -0.010957306 -0.041928124 -0.098209284
000340 c2 ad f1 bd bb ee 7b bd a0 3d a1 3d 95 ef 98 3d
       -0.1180072 -0.061506968 0.07873082 0.07467572
000350 36 b4 10 3e 6f 7f 51 3d af a6 89 3d 72 df 85 3d
       0.14131245 0.05114692 0.067212455 0.065367594
000360 2d 42 b5 3d 74 2b 10 3e 23 7b a7 bc 26 bc 05 bc
       0.08850513 0.14079076 -0.020444458 -0.008162534
000370 3f 55 66 bb 4a 96 8c bd 7b 02 bf bd 55 6d 8b 3c
       -0.0035146025 -0.06864603 -0.09326645 0.017019907
000380 9b 3f 6f bd b2 ee 8c 3d d0 b0 19 bd f8 5b 06 bd
       -0.05841027 0.06881465 -0.037522137 -0.032802552
000390 26 c0 b7 bd 06 dd e9 3c bc 65 9c bc 27 6e d0 3b
       -0.08972196 0.028547775 -0.01909148 0.0063607874
0003a0 09 65 55 bc fb fc 8b bd 1e ed 13 bc a5 76 59 bc
       -0.013024577 -0.068353616 -0.009028701 -0.013272916
0003b0 42 22 a5 3c e9 0c a9 3d 04 38 8c 3d 59 5f 85 3c
       0.020157937 0.082544155 0.06846622 0.016280817
0003c0 3a c0 31 3e 7d a1 21 3e de bd 57 3d c2 11 09 3e
       0.17358485 0.15784259 0.052671306 0.1338568
0003d0 e5 0a 3a bd 9d e6 73 bc 83 04 4a bc c4 b6 33 3d
       -0.045420546 -0.014886525 -0.012330177 0.04387547
0003e0 01 43 51 3d de 87 5f 3d f8 87 00 bd 0b 92 cb bc
       0.05108929 0.054572932 -0.03137967 -0.024849912
0003f0 39 1e 90 bc 41 c8 92 bc f2 ee 83 b8 4b e3 d6 3a
       -0.017592536 -0.017917754 -6.291074e-05 0.0016394643

bias f4 [16]
000000 74 4f 3e 3d f5 8a 5e 3d 8f 5a d8 3c f4 5e 54 3d
       0.04646249 0.05433174 0.02641037 0.051848367
000010 f7 7a 9d 3d dc a8 85 bd 63 90 63 3d 01 3f c4 3b
       0.07689469 -0.06526348 0.05555762 0.005988956
000020 f4 eb ee 3c 86 8b 33 3d b9 b4 ab 3c ba 82 8d bd
       0.029165246 0.04383423 0.020960199 -0.069097
000030 f9 28 96 3c 3e 92 85 3c 9c 4e 05 bc 2f f3 1f bc
       0.018330084 0.016305085 -0.008136418 -0.009762569

weight f4 [120, 400]
000000 c0 c8 c6 3b a0 52 04 bd 60 66 ec 3c 91 b2 76 bc
       0.0060664117 -0.03230536 0.02885741 -0.015057222
000010 74 ff 46 b9 29 50 e3 b8 5f 38 4b bd ab b6 13 bd
       -0.00018977915 -0.000108391345 -0.049614307 -0.036062878
000020 ce 55 a6 bb 59 13 0b 3d 39 91 44 bd e8 d8 88 bc
       -0.0050761467 0.033954 -0.047990058 -0.016704991
000030 4c b2 bf bc f1 be 3c bd 97 5d a0 3c 86 32 ec bc
       -0.023400448 -0.046080533 0.019575877 -0.028832685
000040 10 f3 0b 3d 6d a1 4a bd 32 b5 05 3d ae 2b 1d 3c
       0.03416735 -0.049470354 0.032643504 0.009592934
000050 1f 7c a2 3b 1b 91 09 bc aa 34 94 3c 2c c0 e8 3a
       0.004958644 -0.008396412 0.018091518 0.0017757467
000060 62 26 a2 ba 1f 80 3d bb 59 c3 e9 3c b2 51 b4 bb
       -0.0012371058 -0.0028915477 0.028535532 -0.005502903
000070 0e ff 10 3d 5b b2 0c bd c2 aa b2 bc 5e 21 34 3d
       0.03539949 -0.03434978 -0.02180994 0.043977134
000080 bf a5 21 bd 33 45 dc ba c2 40 26 bd aa 29 eb bc
       -0.03946471 -0.0016805291 -0.0405891 -0.02870639
000090 8b 3b de bb 4c c5 e7 3b 1d c0 19 bd 5c 5b a1 bc
       -0.0067820004 0.00707308 -0.03753673 -0.019696884
0000a0 19 8b 23 3d 13 30 ed bc 2d a0 7e bc 6b d2 3b bc
       0.039927576 -0.028953588 -0.015541119 -0.011463742
0000b0 45 4b 3a 3d ae 9e c1 bc fe 0c 22 bb 57 41 d3 bb
       0.04548194 -0.023635235 -0.0024726982 -0.006446998
0000c0 24 f2 1f bc 2e fb 7d bc 24 61 13 bd ac 40 ea 3c
       -0.009762321 -0.01550178 -0.035981312 0.028595291
0000d0 80 ff 3e 3c ff 04 dd bc 30 98 2f bd 2d 90 2b 3d
       0.011657596 -0.026979921 -0.042869747 0.041885544
0000e0 e7 c7 c1 bc 29 c3 3f 3b f0 05 25 bc 5a ab 1c bd
       -0.023654891 0.0029260612 -0.010072216 -0.03824935
0000f0 24 9f c8 bc a3 35 1d 3d 63 19 06 bd 5d 62 fe 3c
       -0.024489947 0.03838123 -0.032739054 0.031052763
000100 1d c4 32 bd fc 88 20 bd af 5d 28 bd 00 ab 4a bc
       -0.04364406 -0.03919314 -0.04110497 -0.012369871
000110 eb 32 2f bd f1 da 07 bc 1d 68 42 3d 3d 82 2b bd
       -0.04277317 -0.008291946 0.04746257 -0.04187225
000120 0e b5 41 bd c4 53 8f bc aa 56 02 bc 5e 11 4a 3c
       -0.047291808 -0.017495997 -0.007955233 0.012333242
000130 1e 3a b0 3b b6 e9 18 bd 64 53 79 3b aa cd 32 bd
       0.005378022 -0.03733226 0.003804409 -0.043653168
000140 d7 58 1b bc 9e 8f 29 bd 38 45 b4 bc 89 a6 89 bc
       -0.00948163 -0.04139673 -0.022005662 -0.016803043
000150 24 57 20 bd d3 ad 80 bc 7d d2 e5 bc 96 ad 06 bc
       -0.039145604 -0.015707886 -0.02805447 -0.008220097
000160 e6 25 46 bd 33 b6 9d 3b 1a b5 3f bd c8 42 dc 3c
       -0.048375987 0.0048129796 -0.04680357 0.026887313
000170 95 ea 06 bd 02 1a 87 3c ad ff d6 3c 6e e8 95 bb
       -0.03293856 0.016491894 0.026244963 -0.004574827
000180 77 9a 97 b7 d6 36 c1 bc d9 31 40 3d 89 58 12 bd
       -1.8072531e-05 -0.023585718 0.04692254 -0.035728965
000190 3b 26 41 3d 3a ea 76 3c 24 cc f4 bc 6c b3 c8 3c
       0.0471556 0.015070492 -0.029882498 0.024499618
0001a0 97 37 f9 3a 3c d6 3e bd e6 65 26 ba 74 fd 1b 3d
       0.001901376 -0.04659103 -0.00063475815 0.03808351
0001b0 87 2f 12 3b d5 68 bc bc 24 2f 36 bd 7e 9c 9c bc
       0.002230616 -0.022999207 -0.04447855 -0.01911759
0001c0 e1 33 72 3c 6c 2f f4 3c 00 96 65 39 66 fa d0 3c
       0.014782877 0.029807769 0.00021895021 0.025510024
0001d0 a8 15 38 3d 89 c8 20 3c d4 7b ae 3c fd 4d 75 bc
       0.044942528 0.009813436 0.02129928 -0.014972207
0001e0 5f ea 47 bd e0 05 fc bc e8 57 53 bd 51 9e 3e 3b
       -0.048807498 -0.03076452 -0.051597506 0.0029086063
0001f0 06 8a 7f 3c 1c 23 e1 bc 73 ad 87 bb 1b 86 22 bd
       0.015596872 -0.027482562 -0.00414055 -0.039678674
000200 e3 08 c9 3c cd 36 36 3c 62 6b b8 bc 59 69 e2 3c
       0.02454037 0.011121464 -0.022512142 0.027638124
000210 e8 69 cb bc bc 35 35 3d 0c 09 56 bb 55 ad a5 3c
       -0.024830773 0.0442407 -0.00326592 0.020224253
000220 45 4b 4c 3c a5 8b da 3c a0 ae 1a 3b 1f 25 1d bd
       0.0124691175 0.026677916 0.002360262 -0.03836548
000230 4c 83 15 bd 6d 8c a4 3c 06 91 cf bc b1 1a eb bb
       -0.036502168 0.020086491 -0.025337707 -0.0071748127
000240 ac 60 61 3b 49 35 33 bd 4b 4f 35 bd 1d c4 1c 3d
       0.0034389896 -0.04375199 -0.044265073 0.038272966
000250 8e 23 b0 3a bc 94 b0 bb 60 10 01 3c f5 28 41 bc
       0.001343833 -0.0053888243 0.007877439 -0.01178955
000260 60 88 b9 bc be 6c 1c bd 2c f0 ff bc 42 2a 2d bd
       -0.022648036 -0.038189642 -0.031242453 -0.04227663
000270 19 c2 56 bc ce d6 a4 3c 04 6f d1 3c b8 52 25 3d
       -0.0131078 0.020121958 0.025565632 0.04036209
000280 c3 38 a5 bc 6c b7 03 3c 11 4e 57 3c 06 97 29 3d
       -0.020168668 0.008039337 0.013141171 0.041403793
000290 58 40 cf 3b 62 2c 57 bc 90 ef 53 3c eb f4 30 3d
       0.006324809 -0.01313314 0.012935534 0.043202322
0002a0 ea dc 3d 3d 1d e0 22 bd a8 b9 af 3b 19 77 28 bd
       0.04635326 -0.039764512 0.005362708 -0.041129205
0002b0 c3 4b 07 3d f9 3b be bb 82 29 85 3b 64 81 04 bd
       0.033031236 -0.005805489 0.004063786 -0.03234996
0002c0 91 23 0a bc 09 8a 40 3b 3f 2a 84 bb ba 7e 81 bc
       -0.008431331 0.002937915 -0.0040333564 -0.015807498
0002d0 4d ce 39 3d 63 c0 2f 3d 73 89 13 3d a3 84 e4 3c
       0.04536276 0.042908084 0.036019754 0.027895277
0002e0 1a b1 2c 3d 2c af a0 3b d5 f0 25 3d fe 0e c5 bc
       0.042161085 0.0049036946 0.04051288 -0.024055
0002f0 b4 ae a0 bc 96 fc d2 bc 73 07 e3 bc 81 e0 85 3c
       -0.019614555 -0.025755208 -0.027713513 0.016342403
000300 17 54 af bc 3e a1 62 bb b6 5f a7 bc 96 68 4b bc
       -0.021402402 -0.003458097 -0.02043138 -0.012415072
000310 58 ba 23 ba cd 1b cc 3c c6 3d 8d 3c 41 04 c1 3c
       -0.0006245724 0.0249156 0.01724137 0.023561599
000320 8b ca b5 bc 27 7c 05 3d d2 2b 5a bc e8 bf 0f bd
       -0.022191307 0.032589104 -0.013316112 -0.035095125
000330 18 05 ce 3c 62 d3 2b 3d f6 5e 42 bd 53 87 70 3c
       0.025148913 0.041949637 -0.047453843 0.014680701
000340 ab a0 22 bd f0 cf 32 bd 7d 43 18 bd 8e 50 25 3d
       -0.039704006 -0.043655336 -0.037173737 0.040360026
000350 b0 dd 60 bc 0e 1c ef ba 7d a8 0b bd 9d 54 1b 3d
       -0.013724729 -0.0018242614 -0.03409623 0.03792249
000360 f9 06 9b 3c b3 a2 2b 3c 9f d6 bc bc 88 c4 9a bc
       0.018924223 0.010475802 -0.023051558 -0.018892542
000370 34 bf f3 bb e5 15 b4 bb d8 0d b7 3c 7f c1 83 bc
       -0.0074385647 -0.005495774 0.022345468 -0.016083477
000380 b6 3f 1a bd 22 f5 0a bd 37 da 1f 3c 40 b7 4c 3d
       -0.037658416 -0.033925183 0.009756616 0.04997945
000390 5a d8 36 bd 84 ca a7 bc 89 b6 28 bd 2e b7 45 3d
       -0.044639923 -0.02048231 -0.041189704 0.048270397
0003a0 3e 06 a6 bc 78 2d ba bc e3 3a 97 bc 44 ee 5e 3c
       -0.020266648 -0.02272676 -0.018460697 0.013606612
0003b0 a4 1e 3f bb c7 71 35 bd a9 15 27 3d a2 7b 96 bc
       -0.002916255 -0.04429796 0.04079214 -0.0183695
0003c0 52 50 01 bd 92 08 1d bd 7e 10 88 3b a1 cd 78 3c
       -0.03157074 -0.03833825 0.0041523566 0.0151857445
0003d0 99 4b 12 bd 14 7d 35 bc 32 54 1e bc 3f d9 e7 b9
       -0.035716627 -0.011077184 -0.009663628 -0.00044221614
0003e0 8d c2 cb bc a7 9b 4c bc 65 11 06 bd d4 1c fd bc
       -0.024873042 -0.012488282 -0.032731432 -0.030897535
0003f0 6c d6 4f 3c 8b e2 0d bc 64 23 09 3d 9a c7 2c bd
       0.0126853995 -0.008659969 0.033481017 -0.042182542

bias f4 [120]
000000 4d 3f 8c bc 33 52 2e 3c 29 5a 41 3b 7a 63 20 bc
       -0.017120028 0.010639715 0.0029503203 -0.009789342
000010 ad a2 fa bc 1e d8 be bb 8c 8b 29 3d f3 0c 02 3c
       -0.030595148 -0.005824103 0.041392848 0.007937658
000020 c1 b0 3e bd 19 0d 45 3d 67 c1 53 3c 0f 13 64 3d
       -0.046555284 0.048108194 0.012924529 0.05568224
000030 81 0c 16 3d 37 8a 72 bb 93 84 27 bb f0 0b 40 bd
       0.03663302 -0.0037008652 -0.0025561198 -0.046886384
000040 96 e6 b6 bb 40 ce ca 3c 0d 2b fd 3c 20 ec 9e bb
       -0.005581687 0.02475655 0.030904317 -0.0048499256
000050 6f d1 c5 3b d5 f8 18 3d a9 4f df 3c bd 0c 56 bc
       0.0060369293 0.03734668 0.027259665 -0.0130645605
000060 b6 26 10 bd 3d 22 b6 3c ac ce 1b 3d 0e 22 56 bb
       -0.035193168 0.022233123 0.038038895 -0.0032674107
000070 17 0c 45 bd 56 bc 19 3d d7 69 9b 3c 8b ba c6 3b
       -0.048107233 0.037533127 0.018971367 0.006064718
000080 81 36 33 bd 29 08 d8 3c 81 e2 a2 3a 55 15 5f 3d
       -0.04375315 0.026371079 0.0012427123 0.054463703
000090 77 62 39 3c db 76 64 bc b3 d1 8f bc a0 a6 81 bc
       0.01131498 -0.013944353 -0.017556047 -0.015826523
0000a0 ef 96 6f bc dd 2f 16 bc 81 f8 05 3b b9 78 c1 bb
       -0.014623388 -0.009166685 0.002044231 -0.005904284
0000b0 62 ce 72 bc 4d db 1d bd ba 91 83 3b 10 ba 69 3c
       -0.014819713 -0.03853922 0.0040151747 0.014265552
0000c0 f6 0c 0d bd f0 02 e8 bb 58 44 e9 bb 37 e4 3f 3d
       -0.03443619 -0.0070804283 -0.007118743 0.046848502
0000d0 56 d6 88 bc 5c 60 0f bd a3 34 05 bc 4f 86 51 bd
       -0.016703766 -0.035004005 -0.008130225 -0.051153477
0000e0 08 24 1a 3c 19 30 29 bc 2a 15 f4 bc e2 26 e6 bc
       0.009408005 -0.010326409 -0.029795248 -0.028094713
0000f0 fb 71 76 bc 9d 4c 06 bc 1a 58 fd bc f7 11 23 3d
       -0.0150418235 -0.008196977 -0.0309258 0.039812054
000100 6e 9d cd 3c 04 80 41 bd 5d 21 e7 3b 58 72 f1 bc
       0.025099482 -0.047241226 0.0070535378 -0.029473469
000110 f5 c6 20 bc 33 86 4a 3b 5f bf 2b 3c f6 dd 0a bd
       -0.00981306 0.0030902743 0.010482638 -0.033903085
000120 37 a2 1b b9 e7 0f 17 3c f3 f3 1d 3d 28 ca 8f bb
       -0.00014842382 0.0092201 0.038562726 -0.0043881126
000130 8e 6f 4b 3c ff b6 17 bd 9c ad 6d bc 46 6c 49 3c
       0.012416733 -0.037039753 -0.014506724 0.012293881
000140 65 21 1b 3d 4c 93 23 bc 1c 5c 4a 3d 26 a4 5d 3d
       0.037873644 -0.009983849 0.04940425 0.054111622
000150 7f 01 31 3d 69 27 43 3b bc d9 f6 bb ee 8c 41 bd
       0.043214317 0.002977813 -0.00753328 -0.04725354
000160 55 e5 a6 bc 06 8a 1a 3c d2 89 57 3d d5 cb e8 bc
       -0.020373026 0.009432321 0.05262167 -0.028417507
000170 68 0e e6 3a cf ea 1c bd 9f 41 03 bb 93 2c 7d 3c
       0.0017551901 -0.03830987 -0.0020028127 0.015452522
000180 b8 62 b7 3c 2c e9 fe bc 0b 08 a5 bb 49 93 3b bd
       0.02238594 -0.031117044 -0.005036359 -0.04579476
000190 79 72 57 3d 04 64 18 3d 4b 7e 34 bc 38 02 a8 bc
       0.052599404 0.037204757 -0.011016439 -0.02050887
0001a0 76 86 35 bd 42 72 3f bd 06 ef ef 3c a9 e8 d1 3c
       -0.044317685 -0.046739824 0.02928878 0.025623636
0001b0 1d 17 1f bd d7 30 de 3c f9 89 c4 bc ee cc 7b bc
       -0.038840402 0.027122898 -0.023991572 -0.015368683
0001c0 30 e8 cc bc f6 5e 1a bd d1 75 9c 3b 6f 46 39 bc
       -0.02501306 -0.037688218 0.004774787 -0.011308297
0001d0 67 52 18 bd 82 31 a3 3c 0b bb 28 bd 8e 03 99 bc
       -0.03718796 0.019921068 -0.041194003 -0.018678453

weight f4 [84, 120]
000000 b9 e3 4a bd 51 1d 8a bd fd 4b 9b bb f4 b4 5e 3d
       -0.04953358 -0.06743873 -0.004739283 0.05437179
000010 c4 03 8c bb bc e8 ba 3c f7 9f 02 bd d6 d1 99 3c
       -0.00427291 0.022816055 -0.031890836 0.018776815
000020 ce c3 15 3d cf 61 51 3d 9c 1e ab bc ab 94 cb 3d
       0.036563687 0.05111867 -0.02088862 0.099404655
000030 71 12 b4 3d aa 0d de bd 53 32 bc bd 1a fc 65 3a
       0.0879258 -0.1084245 -0.09189286 0.0008773223
000040 57 af 9d 3d 68 b8 91 3d 15 d3 07 bd 75 df 1a bd
       0.07699459 0.07115251 -0.033160288 -0.03781076
000050 be 4f b8 bc c7 70 80 3c bf c7 79 bd 39 52 88 bc
       -0.022498962 0.015678776 -0.06098151 -0.01664077
000060 ef 29 e6 3c b4 f4 b7 3d 35 b2 1f 3c 1f 1f 9f 3d
       0.028096167 0.0898222 0.009747078 0.07769608
000070 e0 1f 7f bc 54 10 f7 bc c8 38 94 3d 44 14 35 3c
       -0.015571564 -0.030159153 0.07237393 0.011052195
000080 7c 62 8c 3d 0a 08 28 3d 9c 07 b3 bd 79 a4 49 3d
       0.06854722 0.04102329 -0.08741686 0.04922912
000090 32 39 c1 3d 30 ae bd 3c 4b 62 d4 3b db 81 98 3d
       0.09434737 0.023154348 0.006481444 0.07446643
0000a0 45 54 00 3d 12 17 94 bd bc 88 3a 3d d1 25 58 3d
       0.031330366 -0.07230963 0.045540556 0.05277044
0000b0 13 15 74 3d 28 11 2c bd 0a 5d b9 bd 1c fc 7d bd
       0.05959041 -0.04200855 -0.09050949 -0.06200801
0000c0 eb c6 b1 bd 95 9f 8f bc 44 51 64 bc 02 12 4d 3d
       -0.08680519 -0.01753215 -0.013935391 0.050066
0000d0 be a8 38 3d 4e 6b 89 3d 36 34 c8 3c c8 00 29 3d
       0.0450828 0.0670992 0.024438959 0.04126051
0000e0 86 7e ad 3c 9e 41 d8 3c 88 07 9f 3d 75 ec a9 3c
       0.021178495 0.026398476 0.07765108 0.020742634
0000f0 5a 8c d1 3c 22 df 92 3d 0a 7d c9 bd 2e df 90 bd
       0.02557962 0.071714655 -0.098383024 -0.07073818
000100 e8 05 93 3d 52 77 99 3d c6 cf d6 3a bc b0 68 3c
       0.07178861 0.07493462 0.0016388826 0.014202293
000110 47 73 e0 3c 5b 84 ca 3c 4b fc c5 bc 2f 9e ab bd
       0.027398719 0.024721315 -0.024168154 -0.083797805
000120 27 04 38 3d 04 80 84 bc 51 97 bc 3d 69 f1 7f bd
       0.044925835 -0.016174324 0.09208549 -0.062486086
000130 03 e9 0a bd 84 99 09 3d 68 f8 61 3d 01 55 aa bd
       -0.033913624 0.03359367 0.05516854 -0.083169945
000140 39 49 73 bd 82 92 c7 3d db d4 ca bc b9 62 bf 3d
       -0.059396002 0.09744741 -0.0247597 0.09345002
000150 49 e7 ad bd 45 2b 84 3c 88 a5 28 3c 1b 8d bc 3d
       -0.0849138 0.016133914 0.010293372 0.09206601
000160 e2 1b c6 3c 29 16 a9 bc 28 94 bd 3d ee 1d 29 bd
       0.024183217 -0.02064045 0.09256774 -0.04128831
000170 a0 3d b8 bd 8a dc f2 bc ff 87 26 bc 88 c2 18 bd
       -0.08996129 -0.029646177 -0.01016426 -0.037294894
000180 e9 d9 1d 3d 61 11 b1 bc d4 43 82 b8 54 1a 99 3d
       0.038537893 -0.021614732 -6.211517e-05 0.07475725
000190 ff e8 d8 bc 2f 6c 82 bd d5 d5 fd bc df 58 07 bd
       -0.026478289 -0.06368291 -0.030985752 -0.03304374
0001a0 3b 81 8c bd cc a1 05 3d 93 16 48 3d 81 c9 0e 3d
       -0.06860586 0.032625005 0.048849653 0.034860138
0001b0 de c2 9f 3d 62 14 f2 bc ef 61 c4 3d bc da a5 bd
       0.0780084 -0.029550735 0.09588992 -0.08098361
0001c0 ee dd e5 bd a8 c5 94 bd a4 61 22 3d ab 34 a7 3d
       -0.1122397 -0.072642624 0.0396439 0.081643425
0001d0 03 15 67 bc ef 87 85 3d d9 17 8c bd 74 8a cd bd
       -0.014104131 0.06520068 -0.06840486 -0.100361735
0001e0 94 f3 55 3c f3 1a 66 bc 99 86 5c 3d 8f 67 73 3c
       0.013058562 -0.014044511 0.0538393 0.014856233
0001f0 fe 5f b4 3d 92 fa 0e ba 23 d9 0b bc a2 a9 a1 bc
       0.088073716 -0.0005454208 -0.008535656 -0.019734208
000200 88 14 4b bd c1 e1 8d bd 1a cb 64 bd 00 c0 d9 bc
       -0.049580127 -0.06927825 -0.055857755 -0.02658081
000210 ea 80 49 3d 41 0c 78 3c ca 31 6f 3d 24 b4 d8 3c
       0.049195208 0.01513964 0.058397092 0.026453085
000220 d7 ca 52 3d 25 62 5a 3d d6 9c c3 3c 54 dc 9c 3d
       0.051462974 0.053316254 0.023878496 0.07659212
000230 16 7a 8a 3d 44 30 cd 3c 68 3c 40 bd 54 f9 5d bd
       0.06761567 0.025047429 -0.046932608 -0.054192856
000240 5f 74 d2 bd a4 65 dd 3c 3c a9 bb bd 34 63 c1 3d
       -0.10276102 0.027026005 -0.09163138 0.094427496
000250 ec 2d cb bc 7c c7 0e 3b b6 96 f7 3a ad 45 d3 3c
       -0.02480217 0.0021786382 0.001888952 0.02579006
000260 e7 54 ac 3d b2 1d 69 3d de 0d 1b bd d3 cf e7 bc
       0.08414631 0.056913085 -0.03785502 -0.02829734
000270 3c 9a 7e 3d 08 18 8f bb f9 ff 0e bd 95 79 34 3d
       0.062158808 -0.0043668784 -0.034912083 0.044061262
000280 06 31 4f 3d cc 21 71 3d 32 98 86 3d c9 43 08 3d
       0.05058386 0.05887012 0.06571998 0.03326777
000290 19 40 83 bd bb 21 75 3c 14 07 17 3d 24 b1 71 bc
       -0.0640871 0.014961655 0.036871985 -0.014751706
0002a0 c1 13 a8 bd 35 03 9a bd cc 5c a3 bd 42 9a 48 bc
       -0.08206893 -0.07520143 -0.07976684 -0.012243809
0002b0 a9 af 87 bc b4 3a 87 bd 03 49 be 3d 45 e3 ac 3d
       -0.016563253 -0.066029936 0.0929127 0.08441786
0002c0 06 dd 97 3c e5 92 26 bc ff 1c 89 3d b3 e3 b8 3d
       0.01853801 -0.010166858 0.06694984 0.09027805
0002d0 44 33 86 bd 20 ec 1a 3d 8b 0c e3 bc 5b 19 cf 3d
       -0.06552747 0.037822843 -0.027715942 0.10112258
0002e0 21 bf 2d bc 1d e1 8b bd 86 28 40 3d ff b2 a6 bd
       -0.010604651 -0.06830046 0.046913646 -0.081396095
0002f0 a4 3d 83 bc ac c3 90 3d fb d2 41 3d 11 c3 ab 3d
       -0.016020603 0.070685714 0.047320347 0.08386815
000300 0a 92 13 3d 51 c3 84 3c 0a ce c9 3d 9b 3b b5 3d
       0.036027946 0.016206415 0.09853752 0.088492595
000310 6e bd bc bd 43 47 c5 3d 4b 18 b2 3d d2 1b 93 3d
       -0.09215818 0.09632733 0.0869604 0.07183041
000320 5e bc a9 3d 10 60 cd bc c7 9d 2e bd 5e 42 88 bd
       0.08287881 -0.02507022 -0.042630937 -0.066532835
000330 c0 4b a5 3d 0c 8e 8f 3d 7d 8e 4f bd 85 3b 76 3d
       0.08071089 0.07009515 -0.050672997 0.060115356
000340 be 1b 91 3d 49 c1 e6 3c be de 30 bd da a5 e3 3d
       0.070853695 0.028168337 -0.043181174 0.11115618
000350 4e 61 dd ba 23 e7 d1 3c e2 b9 dc 3c 06 47 3c 3d
       -0.0016889961 0.02562291 0.026944105 0.04596617
000360 1b 62 82 3a 7d a2 82 3a 42 f5 ca bd fe ee d5 bb
       0.0009947451 0.0009966638 -0.099100605 -0.006528734
000370 20 4b 93 bd 09 d8 65 3d 21 a8 91 3d e8 b2 8f bb
       -0.07192063 0.05611423 0.07112146 -0.004385341
000380 1f f3 b1 3d f1 06 31 bd f0 1c 9d bd a1 e1 4b bd
       0.0868895 -0.04321951 -0.07671535 -0.049775723
000390 6a a6 4e 3c 36 39 e3 3c a3 89 40 3d 98 d7 74 bd
       0.012612918 0.027737241 0.04700626 -0.05977592
0003a0 de 72 97 bd 96 e2 5b bc 3f aa ce 3c 3c f7 55 3d
       -0.07394956 -0.0134207215 0.025227664 0.052237734
0003b0 08 25 9e 3d 0b f7 14 bd 1f 9b a4 bd 97 e0 85 3b
       0.07721907 -0.03636841 -0.080373995 0.004085611
0003c0 2c e6 a7 3d 22 17 cb bd 4f 10 b5 3c 7e 61 16 3d
       0.08198199 -0.099165216 0.022102503 0.03671407
0003d0 97 8d 98 bd cb 3b a8 3d 33 62 04 3b 30 d0 65 3d
       -0.07448881 0.082145296 0.0020200133 0.056106746
0003e0 23 f0 e0 3d a8 5f 64 bd a7 78 c1 bb 59 e0 2b bb
       0.109833024 -0.055755287 -0.0059042755 -0.002622625
0003f0 66 b8 9c bc c7 80 00 3e ca 99 34 bd bd b3 5b bd
       -0.019130897 0.12549125 -0.044091977 -0.05363821

bias f4 [84]
000000 cf 95 07 bd 52 5f 50 bc 1e 61 31 3d 7d 92 98 3d
       -0.033101853 -0.012718039 0.04330551 0.074498154
000010 45 f9 e3 3a 4d 2f 91 bb 99 37 8e bd a1 fb 41 bd
       0.0017393014 -0.0044306875 -0.06944198 -0.047359113
000020 a0 40 ba bd 84 1e a2 b9 ce 4f 9f 3d 16 06 fd 3c
       -0.090943575 -0.00030921784 0.077788934 0.030886691
000030 97 c2 a6 3c a2 fc 29 bd fd 65 9c 3d dc 0c 02 bd
       0.02035646 -0.041500695 0.0763664 -0.031750545
000040 fe 68 30 3c 4e d9 ad 3d 0a 87 59 3d e3 09 c1 bc
       0.01076722 0.08488713 0.0531073 -0.023564285
000050 3a 46 5d bd b6 ff 54 3c aa 38 5b bd 63 92 e0 3a
       -0.05402205 0.013000419 -0.053520836 0.001713347
000060 37 28 52 3c 4f 55 96 3d 70 5c 06 bd a9 06 41 3d
       0.012826971 0.0734049 -0.032803 0.047125492
000070 a4 36 93 bd 00 6f 73 3c a3 eb 4f bd 77 91 c9 3d
       -0.07188156 0.014858007 -0.05076183 0.09842198
000080 07 ed b8 3d 8a 12 5a bd b4 49 49 bd 43 1a 98 bd
       0.090295844 -0.053240336 -0.049142554 -0.07426884
000090 63 ba 9a 3d 14 d6 a0 3d e9 9f e6 3d f9 da 1a 3d
       0.07555082 0.07853332 0.11260969 0.037806485
0000a0 eb cc 5f bc a7 7f 89 3d 72 38 2c bd 6f fc f6 3c
       -0.013659696 0.06713801 -0.042046018 0.030149667
0000b0 f9 12 c4 3d c2 13 85 bd 26 ff d9 bc dc 3b 5c 3c
       0.09573931 -0.06497909 -0.026610922 0.013442006
0000c0 e8 38 8c 3d bc 6a c3 3d bc 38 71 bd 19 02 0d 3b
       0.068467915 0.09541842 -0.058891997 0.0021516143
0000d0 4d 48 07 3d 40 c0 86 3d 9c 56 7c 3c 37 0d 2a 3d
       0.033027936 0.065796375 0.015401509 0.04151651
0000e0 df 50 41 3d 5b 0d ae 3d 7b ae 29 bd ba bd 4b 3d
       0.047196265 0.08498641 -0.041426163 0.049741484
0000f0 93 f1 dd bc 86 1e 74 3c 03 59 a4 3d 90 37 3c bd
       -0.02709273 0.0148998555 0.0802479 -0.045951426
000100 18 5b 90 3d 20 3c af 3b 99 13 1d bc 9c 8d 12 bd
       0.07048625 0.0053477436 -0.009587192 -0.03577958
000110 ea 5b 65 3d d4 4e c8 3d 12 c7 03 bd ea 9d 7f bb
       0.05599586 0.0978066 -0.03217227 -0.0039004036
000120 22 97 b8 3d a7 36 78 3c d8 59 a2 3c d5 a3 13 3d
       0.09013201 0.015149749 0.019818231 0.036044914
000130 06 ac 90 bd 9d 0c 71 3c 38 3f b1 bd 3e 1d 38 bd
       -0.07064061 0.01471248 -0.08654636 -0.044949763
000140 49 f4 88 3c 82 16 a7 bd 5e 08 18 3d 20 17 af bd
       0.016718047 -0.0815859 0.037117355 -0.085493326

weight f4 [10, 84]
000000 a0 e6 d0 3c 23 ff 49 3e 04 d4 e0 3d e1 31 09 3e
       0.025500596 0.19726233 0.10977939 0.13397934
000010 1c 20 46 3d 64 71 cc bc 80 13 41 3d 4d e0 57 3e
       0.048370466 -0.024956413 0.047137737 0.21081658
000020 d9 3d fa 3b 14 4c b7 3d ad e8 39 bc f1 cc 61 bd
       0.0076367673 0.089500576 -0.011346978 -0.055127088
000030 c7 e8 af 3d 73 a5 f5 3d 30 02 3a be f0 9e 40 bd
       0.08589321 0.119944476 -0.18164897 -0.047026575
000040 b1 3e 60 be 22 7b c8 3d 08 ca bb bc 1c 6a 76 bd
       -0.21898915 0.09789111 -0.022923484 -0.060159788
000050 67 6b 1d 3e b8 c9 0a 3d 3f cb 73 3d 88 d3 8d 3d
       0.15373002 0.03388378 0.059520002 0.06925112
000060 bb 89 a5 bd 3e 03 13 be cb 0d 19 3c ac e8 bf 3d
       -0.080829106 -0.14356706 0.009341667 0.093705505
000070 4b b7 66 bd b9 0e a4 bd fe f0 1f be 5a ab 30 be
       -0.056327146 -0.080106206 -0.15619275 -0.17252865
000080 9a d8 53 bc 8c f4 76 bd a8 50 a0 3d 3c c3 d2 3d
       -0.01293006 -0.06029181 0.07827884 0.10291144
000090 34 41 e1 3c 72 e1 c2 3d 37 78 1d be 56 a3 a2 bd
       0.027496912 0.095156565 -0.1537789 -0.0794131
0000a0 cc cc 86 3d 50 de 28 38 7e ce d0 38 82 71 34 3e
       0.06582031 4.0261366e-05 9.956675e-05 0.17621425
0000b0 02 35 b0 3d d9 b9 38 bd 86 28 de bd aa 92 30 bd
       0.086038604 -0.045099113 -0.10847573 -0.04310862
0000c0 86 05 0d 3e ed 56 20 be 15 fc cf bd 52 5a 0a 3e
       0.13771638 -0.1565816 -0.10155503 0.13511017
0000d0 af a5 ee 3d eb 9b e0 bd 80 44 2c bd f7 fa fe bc
       0.116526954 -0.10967239 -0.042057514 -0.031125529
0000e0 0f a2 05 be 9a 9c bf 3d a2 8a d2 3d a5 9f 2f be
       -0.13050102 0.09356041 0.10280348 -0.17150743
0000f0 45 64 d4 3d c4 91 68 3c 21 09 05 be 92 63 53 bd
       0.103706874 0.0141949095 -0.12991764 -0.05160863
000100 48 dc a1 bc e0 05 ac bc 3b 10 97 bc 53 d6 aa 3d
       -0.019758359 -0.020998895 -0.018440356 0.0834166
000110 95 f4 84 bd dc 81 38 3d f7 e5 40 3d 4c 32 66 3c
       -0.06491963 0.04504572 0.04709431 0.014050078
000120 2b fe 7e bd 6b 5a 70 3d 70 e2 9b bd 22 00 0e 3d
       -0.062254112 0.05867998 -0.07611549 0.034668095
000130 78 21 6a bc 6f f7 8a bb f6 c9 da bd e5 49 19 bd
       -0.014290206 -0.004240922 -0.10683052 -0.037423987
000140 b1 33 86 bd 14 89 46 3d b2 b5 12 be 72 9c 95 bd
       -0.06552828 0.04847057 -0.14327124 -0.0730523
000150 bf 7e 90 3b 2a 46 d8 bd c8 33 69 be eb dd fa 3c
       0.0044096406 -0.10560258 -0.22773659 0.030623397
000160 d5 44 84 bd cc 56 49 be 5e ad 9b 3b 50 f8 1b be
       -0.06458441 -0.19662017 0.0047508916 -0.15231442
000170 a6 f0 8a 3d 8a 48 c3 bc 56 64 72 be a5 89 ad 3d
       0.06784181 -0.0238383 -0.23671088 0.08473519
000180 79 71 b0 3d 33 77 6d bc cc d5 12 be 23 05 a7 3d
       0.08615393 -0.014493751 -0.1433937 0.081552766
000190 7a 29 30 3e 3d 54 1f be ab 98 23 3d 51 bf 9c 3c
       0.17203322 -0.15559478 0.039940517 0.019134196
0001a0 6a 95 3a bd 79 68 1d 3d 53 0d 1d 3d 56 01 2e 3c
       -0.04555265 0.03842971 0.038342785 0.010620436
0001b0 43 97 52 bc 11 2b b0 3b 44 7c b1 3d 88 3d 41 3e
       -0.012853446 0.0053762277 0.0866628 0.18871129
0001c0 02 8c 34 3e a9 13 f5 bc 18 06 05 3e 54 b7 1f 3e
       0.17631534 -0.029916601 0.12990606 0.15597278
0001d0 bf ed 03 3e a8 ea 9d bd ba cc b2 bd 93 ce fb bd
       0.12883662 -0.07710773 -0.08730455 -0.1229526
0001e0 c4 02 c4 bd 71 c2 40 3e 91 f6 3c 3e 28 e9 de bd
       -0.0957084 0.18824174 0.18453433 -0.10884315
0001f0 42 f9 80 bd 7e 9c 09 3d 53 6e 63 3d 5b d5 41 bc
       -0.06297542 0.03359651 0.055525135 -0.011830653
000200 44 06 30 3e d0 74 c1 bd 41 45 47 3d 2b b5 be bd
       0.1718989 -0.09446108 0.04865003 -0.09311899
000210 b4 e5 ec 3d 42 cc 13 be bd 69 cf 3d 62 cb 26 3c
       0.1156725 -0.14433387 0.1012759 0.010180326
000220 2a db 90 bd ba bb 2f 3d c4 5d 22 3e ed 2d d7 3c
       -0.07073052 0.04290364 0.15856081 0.026267016
000230 e1 4a 75 3d f7 71 12 3d dc c6 3b 3d c0 a6 02 be
       0.059885863 0.035753217 0.045843944 -0.12758923
000240 e8 8a d7 bd b5 92 8d bb a6 1b 6a 3d e8 9e 18 3e
       -0.10524541 -0.0043204674 0.057155274 0.14904368
000250 ed 01 e3 3b f3 9d 83 3d 83 5d 3d 3d dd 94 9d bd
       0.00692772 0.06426611 0.046231758 -0.07694409
000260 57 c6 1f be 91 40 a7 3c 59 ab f7 3c 6e ea 11 3e
       -0.15603004 0.02041653 0.030233072 0.14249584
000270 f0 d9 2d 3e d5 5b 4e bd b3 fc 4c bd 0e 4a 55 3c
       0.16977668 -0.050380547 -0.05004568 0.013018144
000280 e1 dc 9c bd a5 df 8c 3e 50 af ab 3b 2d 2f b4 bd
       -0.07659317 0.27514377 0.0052394047 -0.087980606
000290 79 c8 a8 bb 6b 7b 85 3c ee 12 8a bd 4b d3 99 bd
       -0.0051508513 0.016294202 -0.06741892 -0.07511004
0002a0 f4 01 b0 bb ec 52 66 3d 98 a0 5e be 57 07 49 bd
       -0.0053713266 0.056231424 -0.21740949 -0.049079265
0002b0 38 a0 8d bd 5b 30 ac 3c f3 ef 7a 3c 2f cb 73 3e
       -0.06915325 0.021019151 0.015315997 0.23807977
0002c0 6f 37 e8 bd 83 88 4f 3d c4 1d b2 bd 24 6e 1f bd
       -0.11338698 0.050667297 -0.086970836 -0.038923398
0002d0 54 47 03 bd 64 2d 17 be 74 1d 44 bd e2 d9 88 3c
       -0.032050446 -0.14763409 -0.04787965 0.016705457
0002e0 77 bf 5a 3e 4f 13 8e 3d 20 07 b3 bd e9 8b d9 bd
       0.213621 0.069372766 -0.08741593 -0.10622389
0002f0 12 86 78 bb d3 25 9c 3d e0 89 61 3d 03 45 37 bd
       -0.003792171 0.07624402 0.05506313 -0.04474355
000300 5d 7e b6 3d fb 66 35 bd d6 4f 99 bd 16 7d 68 3e
       0.08910821 -0.044287663 -0.074859306 0.22703966
000310 81 9c 68 3e 03 ec 20 3e a8 05 87 3c 49 97 f2 bb
       0.22715952 0.15715031 0.01648219 -0.0074032885
000320 0d 97 4a bd c0 fb 37 bb 4f 2b 51 be dd 45 05 be
       -0.04946046 -0.0028073639 -0.20426677 -0.13014932
000330 22 60 e6 3d e3 23 7b 3d ab 71 0f be b3 f5 02 3e
       0.11248805 0.06131352 -0.14008205 0.1278904
000340 9f 4c 89 3d d2 51 1d 3e f5 33 23 bd 5b 5b e4 bd
       0.067040674 0.15363243 -0.039844472 -0.11150237
000350 2a 63 31 39 0d ee c3 3d 56 30 fd bc c3 c9 46 bd
       0.00016916977 0.09566889 -0.030906837 -0.04853226
000360 5c c3 91 3b 78 ea 47 bd 2c 33 d4 3c dc 07 5c bc
       0.0044483375 -0.04880759 0.025903307 -0.013429608
000370 f0 b4 59 3d b6 c7 d3 bc 19 08 fd bd 69 78 1a be
       0.05315107 -0.025852066 -0.1235506 -0.15084995
000380 56 34 a8 bc e8 7f 8c 3d 8d ed 6a bd cf de a8 3c
       -0.020532768 0.06860334 -0.057355452 0.020614056
000390 7d 69 e6 3c 9b 4b a2 bd 8b 2d a6 bd 01 a9 4c 3d
       0.028126473 -0.07924577 -0.081141554 0.049965862
0003a0 5f ba 0d be 62 bf 1c bd 78 b3 a9 bb 58 d5 b1 3d
       -0.13840626 -0.038268454 -0.005178865 0.0868327
0003b0 62 1c ee bb c3 9a f3 3d 3f 69 46 3d bd 70 f5 bd
       -0.007266567 0.11894753 0.048440214 -0.11984394
0003c0 b2 6c 0b bd 22 fd 14 3d 5f a6 d7 bd f1 ae 23 3e
       -0.034039207 0.03637422 -0.1052978 0.15984704
0003d0 88 a4 f6 3c 73 eb 80 3d 64 19 81 bd 31 ea b5 3d
       0.030107751 0.062949084 -0.06303671 0.08882559
0003e0 32 10 c9 bd 78 62 98 3d af 81 23 bc 46 60 fd 3d
       -0.09817542 0.074406564 -0.009979649 0.12371878
0003f0 8e 35 6b 3e 1b e4 39 bc 84 ec f0 bd 56 c7 93 3d
       0.22969648 -0.0113458885 -0.11763862 0.07215755

bias f4 [10]
000000 de 62 b3 3b 2b 3e 02 3e c9 15 9d bc ee ea 67 bd
       0.0054744324 0.12719028 -0.019175427 -0.05662053
000010 a7 34 0b 3d b8 85 8e 3c 21 5c c1 bc 57 63 a2 3d
       0.03398576 0.017397746 -0.0236035 0.07929104
000020 2a d1 63 bc 2e cc 57 3d
       -0.013904849 0.052684955
